src/value_net_mini.pth (torch, 53810 bytes, 8 tensors)

conv_in.weight f4 [16, 18, 3, 3]
-0.020265821 0.013368853 -0.009780763 -0.07079793 -8.44091e-05 -0.14007795 -0.008679224 -0.006703899
-0.03520924 -0.08575952 -0.017854132 -0.047722925 -0.03852758 0.0017444143 -0.056979787 -0.12883951
-0.10394454 -0.08414077 -0.0074377474 -0.05950345 -0.0027400204 -0.07038574 0.056513503 -0.08183817
-0.08934824 -0.073550366 -0.05030426 -0.077889696 -0.001112209 -0.16568106 -0.12689099 -0.06385401
-0.021150831 -0.14076743 -0.04137843 -0.029256696 -0.17333707 -0.0705209 -0.17486633 -0.14302239
-0.064292215 -0.04448569 -0.16466059 -0.05172497 -0.089499995 0.0027111818 0.05374329 0.05419037
0.018732814 0.042777743 0.020726388 0.06265003 -0.019109713 0.060391717 -0.06335195 -0.02813138
-0.019962095 0.0068308767 0.00406605 -0.063461065 -0.11965953 -0.1709551 -0.044984877 0.048135366
-0.02523646 0.045575045 -0.08537755 -0.0050502587 0.053796288 -0.0013307125 0.015301558 -0.03734083
0.11599159 0.035457388 -0.042363398 -0.017543046 0.01468359 -0.03943775 -0.042298216 0.07802491
-0.0008627013 0.09202782 -0.0079355845 -0.0003039902 0.055239942 -0.014058191 -0.0030651914 0.026365377
0.003796396 -0.006161408 0.13124421 0.12509206 0.13989595 0.14146405 0.07683331 0.10801975
0.10528017 0.10806555 0.10092555 0.034931272 0.104776144 0.13434947 0.032022312 0.0500725
0.10380639 -0.13243946 0.074925095 -0.12313989 0.02821744 0.03916196 0.005926296 0.05291046
-0.024316877 0.052770987 0.0050251414 -0.03804572 0.05445173 -0.0010321952 -0.020204365 0.045262635
-0.024877232 -0.048396915 -0.04782231 -0.005189977 -0.0050338814 0.0043970062 0.0040590568 -0.046902608
-0.018529512 0.026733873 -0.015583298 -0.045276545 -0.044221263 0.012314087 -0.02339897 -0.08054911
-0.07087901 -0.053132858 -0.011881225 -0.05087991 -0.028660512 -0.0010394158 0.0117494045 0.010147246
-0.024262844 0.017254604 0.03977059 0.014291038 -0.036772717 0.02053801 -0.00896184 0.01820288
0.0013704426 0.0008147971 -0.003344602 -0.007598365 0.00043962826 -0.0019844398 -0.012816161 0.005164358
-0.0008620936 -0.013998859 0.09188985 -0.08763225 -0.12270417 0.060227368 0.14239116 0.06269771
0.06556455 -0.2656505 0.006900298 0.014821809 0.060925707 0.0360748 0.06123788 -0.003063731
0.011816288 0.04764533 0.013641276 0.036613077 0.06777114 0.07355003 0.0038322026 0.16779156
-0.08845292 0.08704816 0.021387171 0.07531031 0.01527977 -0.007510818 0.0937931 -0.07257094
0.03959364 0.14706083 0.0048822565 0.10714396 0.17331022 -0.022711793 0.0015395768 0.077525325
0.025007611 0.070674606 0.1073628 0.08865166 0.12274364 0.16086096 0.069909275 -0.05054279
-0.0029044817 0.15488347 0.006498365 -0.06554094 0.008476581 0.13656698 0.10654663 0.031574093
0.03370864 -0.04208578 0.029852571 0.035720762 -0.018053187 0.050572507 0.057329692 -0.042988967
0.00039322962 -0.030622575 0.006144074 -0.17825472 -0.028459633 0.0029272744 -0.031413954 0.008698402
-0.064824395 0.021620639 -0.090413384 -0.041490957 -0.052227493 -0.10483958 0.037970982 0.008617607
-0.15037577 -0.019987663 -0.031964187 -0.16027986 -0.12652498 -0.060643636 -0.0075671584 -0.02320536
0.03813222 -0.06282862 -0.051512647 -0.04260962 -0.11584236 -0.0819025 -0.10882016 -0.016672678
00000000: 8204 a6bc 0909 5b3c 7e3f 20bc 81fe 90bd
00000010: ca04 b1b8 9870 0fbe 4e33 0ebc 61ac dbbb
00000020: 9037 10bd b0a2 afbd d442 92bc 1d79 43bd
00000030: 19cf 1dbd d5a4 e43a a363 69bd 81ee 03be
00000040: e0e0 d4bd ff51 acbd 59b8 f3bb e4b9 73bd
00000050: ea91 33bb 6626 90bd b47a 673d c59a a7bd
00000060: 36fc b6bd 93a1 96bd d70b 4ebd a284 9fbd
00000070: 8bc7 91ba 4ca8 29be b6ef 01be e4c5 82bd
00000080: 8244 adbc 5625 10be 6e7c 29bd bdab efbc
00000090: 467f 31be 436d 90bd 2910 33be 7674 12be
000000a0: a3ab 83bd a036 36bd c99c 28be 90dd 53bd
000000b0: c64b b7bd 15ae 313b ed21 5c3d b9f6 5d3d
000000c0: 8f75 993c b737 2f3d 63ca a93c a94e 803d
000000d0: f98b 9cbc 4e5d 773d abbe 81bd c873 e6bc
000000e0: 8c87 a3bc 8cd5 df3b 803c 853b e0f7 81bd
000000f0: 0e10 f5bd db0e 2fbe 1042 38bd 9729 453d
00000100: b1bc cebc e6ac 3a3d 6dda aebd a47c a5bb
00000110: 7f59 5c3d 4d6b aeba 63b3 7a3c b3f2 18bd
00000120: 008d ed3d c43b 113d 3e85 2dbd 6fb6 8fbc
00000130: 7193 703c 7a89 21bd e540 2dbd 86cb 9f3d
00000140: e726 62ba 1579 bc3d 4104 02bc e060 9fb9
00000150: 4743 623d 5454 66bc 61e1 48bb 34fc d73c
00000160: f5cc 783b a3e5 c9bb e264 063e 2218 003e
00000170: e240 0f3e f4db 103e c85a 9d3d 7539 dd3d
00000180: 219d d73d 7951 dd3d 0eb2 ce3d 1814 0f3d
00000190: e094 d63d e892 093e d429 033d d218 4d3d
000001a0: 7298 d43d 369e 07be 5472 993d c430 fcbd
000001b0: 4328 e73c 4b68 203d 6031 c23b a3b8 583d
000001c0: 3034 c7bc 6426 583d f1a9 a43b d4d5 1bbd
000001d0: c708 5f3d b94a 87ba a083 a5bc 5065 393d
000001e0: 56cb cbbc d83b 46bd 54e1 43bd af10 aabb
000001f0: 42f3 a4bb c314 903b d601 853b f31c 40bd
00000200: 34cb 97bc ff00 db3c 1751 7fbc e673 39bd
00000210: 5b21 35bd 06c1 493c 32af bfbc eff6 a4bd
00000220: 0429 91bd d7a1 59bd 78a9 42bc 7467 50bd
00000230: 73c9 eabc 023d 88ba 9380 403c a240 263c
00000240: dfc2 c6bc 8759 8d3c 7ce6 223d f524 6a3c
00000250: fd9e 16bd 543f a83c aed4 12bc 351e 953c
00000260: 6ca0 b33a 1c98 553a 1c31 5bbb b5fb f8bb
00000270: e87d e639 600d 02bb e0fa 51bc c639 a93b
00000280: 1ffe 61ba 785b 65bc bf30 bc3d 8978 b3bd
00000290: 534c fbbd f9b0 763d fdce 113e a867 803d
000002a0: b546 863d 5803 88be e51b e23b 2cd7 723c
000002b0: 3c8d 793d 2bc3 133d 92d4 7a3d e0c8 48bb
000002c0: 1b99 413c c027 433d a97f 5f3c 98f7 153d
000002d0: 98cb 8a3d 66a1 963d b125 7b3b 8dd1 2b3e
000002e0: ce26 b5bd 4e46 b23d 2634 af3c 4b3c 9a3d
000002f0: 0058 7a3c 4f1d f6bb 9916 c03d 13a0 94bd
00000300: f12c 223d 1d97 163e 56fb 9f3b 4b6e db3d
00000310: 3c78 313e 150e babc a0cb c93a 99c5 9e3d
00000320: c3dc cc3c d9bd 903d 07e1 db3d 008f b53d
00000330: 0461 fb3d bcb8 243e 982c 8f3d f505 4fbd
00000340: 1e59 3ebb c699 1e3e 3df0 d43b 543a 86bd
00000350: 5ce1 0a3c 37d8 0b3e 1f35 da3d d653 013d
00000360: 1212 0a3d 2462 2cbd 618d f43c ef4f 123d
00000370: 47e4 93bc 1e25 4f3d 8ad2 6a3d 3315 30bd
00000380: 632a ce39 32dc fabc 3a54 c93b 6888 36be
00000390: 2d24 e9bc 84d7 3f3b ebab 00bd be83 0e3c
000003a0: a7c2 84bd c41d b13c a72a b9bd 6cf2 29bd
000003b0: 7fec 55bd 22b6 d6bd 7687 1b3d dd30 0d3c
000003c0: 1bfc 19be 2bbd a3bc e1ec 02bd 6720 24be
000003d0: c48f 01be 7665 78bd edf5 f7bb 2b19 bebc
000003e0: 8830 1c3d 4bac 80bd edfe 52bd 6d87 2ebd
000003f0: c23e edbd 7fbc a7bd 1bdd debd 2495 88bc

blocks.0.conv1.weight f4 [16, 16, 3, 3]
-0.0660081 0.019197416 -0.045226086 -0.069883674 -0.02545975 -0.058084026 -0.06041799 0.011663329
0.028167121 -0.004171654 0.09589377 0.059100658 0.0060296687 0.03158012 -0.03694897 -0.034990743
-0.007921497 -0.0045293965 0.08487803 0.06273197 -0.03212496 0.01219867 -0.05259528 0.084983505
0.06222362 -0.03305877 -0.05687513 0.0075807073 -0.01411892 -0.032591887 0.015205875 -0.03243812
-0.032423716 -0.05042968 -0.024837457 -0.08888486 -0.05300735 0.009007666 0.009315639 0.039977163
0.03081081 -0.00065956 -0.011952481 0.05159352 -0.020226352 0.09660072 0.08203262 0.071965486
0.10207847 0.008264823 0.09236115 0.012614509 0.027154656 0.072259076 0.042679716 0.048535343
-0.007303608 0.00968788 -0.013014607 -0.01771065 -0.032562517 0.041116588 0.012615715 -0.08146139
-0.012960439 -0.041713815 -0.06171091 -0.010465681 -0.026405178 -0.015668567 -0.07523838 -0.042584747
0.025434354 0.04813 0.009499237 -0.08679126 -0.089477204 -0.015550435 -0.094900146 -0.1265918
-0.09609699 0.076485455 0.069879785 0.08374991 0.035401657 0.017024053 0.022107424 0.04900956
0.03331519 0.019137155 0.0049806987 0.005367102 0.018607508 0.050087534 0.017226115 0.050955348
0.060152646 0.04926634 0.028928831 -0.035191 -0.011335288 0.014150364 0.008140089 -0.0033471223
-0.029410742 0.01173508 -0.031761114 -0.0038009367 -0.01725279 0.0031923195 0.01770438 -0.007955704
0.04832893 -0.08207565 -0.019097127 0.0065940507 -0.09973098 -0.018142257 0.0054460024 -0.059789788
0.016706506 -0.043761555 0.0018554652 0.00871353 0.016538275 -0.04013569 -0.021691138 -0.035224985
-0.05099423 0.0010791371 -0.0061448184 -0.027937468 0.019757513 0.016350806 -0.0054708086 0.034536224
0.07142252 0.06830626 0.023574289 0.022110142 0.083065175 0.0016305104 0.026247533 0.014708082
-0.07693552 -0.081884615 -0.05722912 -0.09177787 -0.09804 -0.06952483 -0.07732245 -0.10097685
-0.114367254 0.043767132 0.088528305 0.051692776 0.050867956 0.051883936 0.016249487 0.053841334
0.04624259 0.07419066 0.06267892 0.05435717 0.045604173 -0.056435395 -0.0052840435 -0.033837985
-0.034755554 -0.039593924 -0.029219534 -0.0014176029 -0.06288178 -0.0526694 -0.0014414786 -0.08456125
-0.113216296 -0.00090663927 -0.09290027 -0.17081636 -0.03487697 0.0010780399 0.039141607 0.006441179
0.036283553 0.064687006 0.08399963 0.10890604 0.118217066 0.0004743152 0.01774844 -0.028233241
0.0011855223 -0.05352209 -0.014158095 -0.029819928 -0.03236215 -0.10003896 0.13104016 0.07510177
0.18748896 0.04241045 0.035929423 0.16067614 0.0017191872 0.08931865 0.14292565 -0.02678819
-0.04314239 -0.029338462 -0.051623743 -0.08400969 -0.09379366 -0.046694335 -0.104966335 -0.13796075
0.021711782 0.017158702 0.014701024 -0.03874667 -0.07928226 -0.071975745 -0.05083057 -0.11889231
-0.14001454 0.020047208 0.012723431 0.028890954 0.038286425 0.019807898 0.030421836 0.0566924
0.038433153 0.044741135 0.029041696 0.040236253 0.05127402 0.08923176 0.08969929 0.1176943
0.12866116 0.12770052 0.15424693 -0.004800824 -0.000118593 0.016846921 0.020909531 0.02679369
0.03396289 0.061040737 0.05933151 0.06916873 0.030694278 -0.012451953 0.059760742 -0.018335128
00000000: 412f 87bd e643 9d3c fd3e 39bd 2c1f 8fbd
00000010: f790 d0bc 84e9 6dbd db78 77bd 8c17 3f3c
00000020: bcbe e63c 5fb2 88bb f463 c43d 8813 723d
00000030: 8794 c53b 285a 013d ce57 17bd 7452 0fbd
00000040: 2bc9 01bc 556b 94bb 88d4 ad3d 9e79 803d
00000050: 7695 03bd eedc 473c 266e 57bd d50b ae3d
00000060: 32de 7e3d a268 07bd e5f5 68bd 9567 f83b
00000070: 0b53 67bc 127f 05bd 1022 793c d6dd 04bd
00000080: bbce 04bd 5a8f 4ebd ec77 cbbc 4409 b6bd
00000090: 3c1e 59bd e494 133c 9fa0 183c 18bf 233d
000000a0: f466 fc3c 53e6 2cba 57d4 43bc ba53 533d
000000b0: bcb1 a5bc 99d6 c53d b800 a83d a462 933d
000000c0: 840e d13d 2e69 073c d827 bd3d 16ad 4e3c
000000d0: 7173 de3c 91fc 933d edd0 2e3d ffcc 463d
000000e0: 1b53 efbb eab9 1e3c 383b 55bc ed15 91bc
000000f0: 4660 05bd de69 283d 25b2 4e3c 3bd5 a6bd
00000100: 0558 54bc 1bdc 2abd 94c4 7cbd 3f78 2bbc
00000110: ac4f d8bc 5e5b 80bc 9416 9abd 586d 2ebd
00000120: b55b d03c f623 453d b0a2 1b3c 9ebf b1bd
00000130: d33f b7bd 40c7 7ebc 025b c2bd 48a1 01be
00000140: 80ce c4bd 68a4 9c3d 221d 8f3d 1385 ab3d
00000150: 5401 113d 0776 8b3c a11a b53c 40be 483d
00000160: 8275 083d 86c5 9c3c 2135 a33b 84de af3b
00000170: c66e 983c 9628 4d3d c81d 8d3c 8eb6 503d
00000180: 9f62 763d 80cb 493d 28fc ec3c 7024 10bd
00000190: a5b7 39bc eed6 673c 025e 053c 655b 5bbb
000001a0: ccee f0bc 7e44 403c f117 02bd 2319 79bb
000001b0: b955 8dbc 3c36 513b c708 913c a458 02bc
000001c0: 8ef4 453d 4717 a8bd 9471 9cbc e812 d83b
000001d0: c23f ccbd 129f 94bc 6174 b23b 23e6 74bd
000001e0: 15dc 883c 513f 33bd 1533 f33a 32c3 0e3c
000001f0: 477b 873c 5265 24bd 9db1 b1bc 1348 10bd
00000200: 53df 50bd d571 8d3a 795a c9bb 1edd e4bc
00000210: 82da a13c 20f2 853c 7844 b3bb db75 0d3d
00000220: f845 923d 27e4 8b3d de1e c13c 5420 b53c
00000230: 131e aa3d dab6 d53a 1105 d73c 2bfa 703c
00000240: 5f90 9dbd 1fb3 a7bd 1569 6abd 09f6 bbbd
00000250: 32c9 c8bd 0963 8ebd 3c5b 9ebd f3cc cebd
00000260: 6139 eabd 2a45 333d 544e b53d cebb 533d
00000270: eb5a 503d 4084 543d a51d 853c bb88 5c3d
00000280: df68 3d3d 46f1 973d ce5d 803d a0a5 5e3d
00000290: 71cb 3a3d cd28 67bd c525 adbb b399 0abd
000002a0: d75b 0ebd 3d2d 22bd ce5d efbc dcce b9ba
000002b0: 2ac8 80bd debb 57bd ffef bcba 732e adbd
000002c0: f2dd e7bd 88ab 6dba 7f42 bebd 7cea 2ebe
000002d0: 27db 0ebd 044d 8d3a f352 203d 8710 d33b
000002e0: 109e 143d 9f7a 843d ff07 ac3d 210a df3d
000002f0: ca1b f23d 82ad f839 2d65 913c 6649 e7bc
00000300: 8763 9b3a fb39 5bbd 5bf7 67bc ec48 f4bc
00000310: 2c8e 04bd 3ae1 ccbd 642f 063e f5ce 993d
00000320: 1bfd 3f3e 94b6 2d3d bb2a 133d 4988 243e
00000330: 5a56 e13a b2ec b63d 1a5b 123e e872 dbbc
00000340: 13b6 30bd 3757 f0bc 6b73 53bd 460d acbd
00000350: e416 c0bd 8f42 3fbd 97f8 d6bd 9545 0dbe
00000360: e8dc b13c 6890 8c3c 90dc 703c d4b4 1ebd
00000370: bd5e a2bd 0568 93bd b733 50bd d07d f3bd
00000380: f95f 0fbe 0b3a a43c f075 503c b9ac ec3c
00000390: 3ad2 1c3d 2c44 a23c 3737 f93c 4a36 683d
000003a0: 156c 1d3d 7b42 373d dae8 ed3c c5ce 243d
000003b0: b504 523d 24bf b63d 43b4 b73d b609 f13d
000003c0: c0bf 033e edc3 023e e8f2 1d3e 3b50 9dbb
000003d0: 22b5 f8b8 8e02 8a3c 774a ab3c 717e db3c
000003e0: ac1c 0b3d da05 7a3d 9905 733d 56a8 8d3d
000003f0: 9172 fb3c 4703 4cbc aec7 743d 8d33 96bc

blocks.0.conv2.weight f4 [16, 16, 3, 3]
-0.010651245 0.021221414 0.011174025 0.04984447 0.06077401 0.106673904 0.08728497 0.10249633
0.061308976 0.044481907 0.07459694 0.07267749 0.0862269 0.11355579 0.11730619 0.112276375
0.13489123 0.1371969 -0.013182648 -0.029909173 0.0015916658 -0.0019978257 -0.021818655 0.008754544
0.014228191 -0.019497901 -0.004201753 0.057890937 0.04923278 -0.0076584066 0.03715821 0.054473933
0.093136065 0.10680585 0.04329666 0.08785064 0.07961728 0.091818325 0.06434563 0.048431538
0.14549163 0.07816912 0.12799601 0.10168769 0.16370419 0.08390364 0.11339867 0.10705683
0.102675416 0.12735641 0.059446383 0.09883164 0.12933676 0.09969695 -0.023338113 0.0035279822
-0.03550002 0.016664611 0.0014255575 0.050138123 0.024459044 -0.006033805 0.062103983 0.03117734
0.029693037 0.083864085 0.096058846 0.07992405 0.0366496 0.078520685 0.08795686 0.070030406
0.016022483 0.06447953 0.06522391 0.084167376 0.08741682 0.072674625 0.046565935 0.09497676
0.07866806 0.038717482 0.005112124 0.0016169205 0.1116267 0.06740778 0.07136047 0.093718976
0.082650036 0.10678593 0.042996913 0.04292745 0.032012682 0.054709297 -0.0025794646 -0.006085988
0.0001276356 0.02132944 -0.010295137 0.02885072 0.061672784 0.028181762 0.03234689 0.015487953
0.009482639 0.018662976 0.030297808 0.025291214 0.017986419 0.0662754 0.042690605 0.08247559
0.078448564 0.074100316 0.069396235 0.06887492 0.08151762 0.0075042425 0.032111395 0.024210962
0.11014252 0.050070487 0.07468095 0.08234108 0.09275958 0.083324745 0.015944308 0.02361276
-0.029543255 0.04092614 -0.007654938 0.02817065 0.03928107 -0.03145863 -0.002810796 -0.005826981
0.008696775 0.022038177 0.04813946 -0.052646194 0.039508365 0.098436914 0.0049385163 0.030547868
0.03159278 0.01425045 0.023334593 0.017724277 0.07017849 -0.02870251 -0.0057074935 -0.016050538
0.00823034 -0.0645068 -0.03789369 -0.07054609 -0.024205692 0.012872249 -0.02381729 -0.010840346
0.021606384 -0.0059534684 -0.07257525 0.0057957144 -0.011437296 -0.020465698 -0.005411584 0.049529977
0.0061297463 -0.014176058 -0.008274652 0.016757881 0.010955644 -0.068762474 0.011438216 0.055509698
0.03452098 -0.07011926 -0.04404095 -0.04691599 0.024865853 0.0140432585 -0.047501437 0.0019410906
-0.034402337 0.04290011 0.029576115 -0.0008791035 0.041296568 -0.038034543 -0.020213367 0.06458883
-0.024832333 -0.025802583 0.009305094 -0.020474516 0.009011423 0.0653586 -0.03578913 -0.013126654
0.02626843 -0.024491457 0.03081057 -0.009877504 0.022078166 -0.047802128 -0.01974269 0.0070503424
0.13285755 0.08637092 0.048844676 0.1197333 0.07929766 0.035155986 0.101305 0.04567702
0.04420068 0.018228829 0.044520978 0.04712542 0.06816492 0.016025933 0.04578668 0.052726418
-0.017976701 0.018203476 0.013041257 0.013948147 0.022138499 0.014589367 -0.030232819 0.010039973
0.0723299 0.045887664 0.07715379 0.0744949 0.046150766 0.020296061 0.071912065 -0.05223973
0.05998308 0.042937834 -0.0479733 -0.0059482157 0.06638569 0.057447895 0.051228058 0.0997213
0.08074821 0.056341067 0.07824842 0.036290776 0.023206415 0.13524888 0.11431519 0.10459658
00000000: 8f82 2ebc 88d8 ad3c 4213 373c b729 4c3d
00000010: 2bee 783d d977 da3d 76c2 b23d 99e9 d13d
00000020: 1f1f 7b3d a932 363d 48c6 983d f0d7 943d
00000030: bb97 b03d f08f e83d 3a3e f03d 28f1 e53d
00000040: ed20 0a3e 587d 0c3e 09fc 57bc 1504 f5bc
00000050: 719f d03a f4ed 02bb 09bd b2bc 386f 0f3c
00000060: 5c1d 693c 10ba 9fbc dcae 89bb 0c1f 6d3d
00000070: 50a8 493d 5ff3 fabb 3533 183d 0f20 5f3d
00000080: 1fbe be3d 07bd da3d d757 313d 09eb b33d
00000090: 620e a33d 3f0b bc3d a4c7 833d 2660 463d
000000a0: c2fb 143e 2217 a03d 6311 033e a341 d03d
000000b0: 12a2 273e acd5 ab3d 903d e83d 9c40 db3d
000000c0: 7d47 d23d b869 023e 0d7e 733d 3e68 ca3d
000000d0: db70 043e ea2d cc3d 922f bfbc b835 673b
000000e0: 7868 11bd 3984 883c c6d9 ba3a a25d 4d3d
000000f0: 555e c83c 3ab7 c5bb bf60 7e3d 9f67 ff3c
00000100: d03e f33c efc0 ab3d 80ba c43d 38af a33d
00000110: e41d 163d 74cf a03d ba22 b43d 1a6c 8f3d
00000120: 9541 833c d80d 843d 1d94 853d f25f ac3d
00000130: 9707 b33d 6fd6 943d ecbb 3e3d 2d83 c23d
00000140: b81c a13d 3996 1e3d 9b83 a73b d9ee d33a
00000150: 8a9c e43d 170d 8a3d 7025 923d bcef bf3d
00000160: 6c44 a93d 95b2 da3d 881d 303d b2d4 2f3d
00000170: bb1f 033d db16 603d 3c0c 29bb f86c c7bb
00000180: ecd5 0539 14bb ae3c efac 28bc 5858 ec3c
00000190: 9a9c 7c3d 70dd e63c 2c7e 043d 2fc1 7d3c
000001a0: 125d 1b3c 19e3 983c 1c33 f83c 852f cf3c
000001b0: 4158 933c 66bb 873d 58dc 2e3d f6e8 a83d
000001c0: a4a9 a03d e8c1 973d 9d1f 8e3d 4b0e 8d3d
000001d0: b6f2 a63d 26e6 f53b 3d87 033d 1156 c63c
000001e0: 6792 e13d b616 4d3d 53f2 983d 71a2 a83d
000001f0: bcf8 bd3d 2aa6 aa3d a39d 823c 8c6f c13c
00000200: b204 f2bc 2ba2 273d 46d6 fabb 23c6 e63c
00000210: 30e5 203d c4da 00bd 5535 38bb 42f0 bebb
00000220: eb7c 0e3c 6889 b43c e22d 453d 89a3 57bd
00000230: 86d3 213d 4b99 c93d 47d3 a13b 863f fa3c
00000240: 6e67 013d b87a 693c 3028 bf3c 8132 913c
00000250: bdb9 8f3d 8721 ebbc ed05 bbbb 6b7c 83bc
00000260: 8cd8 063c 241c 84bd 6a36 1bbd 787a 90bd
00000270: 044b c6bc 20e6 523c 7a1c c3bc b59b 31bc
00000280: dfff b03c 5015 c3bb 55a2 94bd fae9 bd3b
00000290: 7f63 3bbc aea7 a7bc a853 b1bb f2df 4a3d
000002a0: 0adc c83b b242 68bc 6892 07bc d347 893c
000002b0: 4d7f 333c 57d3 8cbd 5b67 3b3c 235e 633d
000002c0: df65 0d3d b09a 8fbd 4864 34bd fb2a 40bd
000002d0: 79b3 cb3c b215 663c de90 42bd 316c fe3a
000002e0: 77e9 0cbd 07b8 2f3d 9c49 f23c a373 66ba
000002f0: 9726 293d 1cca 1bbd 8196 a5bc 2647 843d
00000300: 2d6d cbbc f05f d3bc 6574 183c 2cba a7bc
00000310: a6a4 133c bbda 853d 9f97 12bd 2d11 57bc
00000320: e430 d73c 4fa2 c8bc 7366 fc3c 41d5 21bc
00000330: 45dd b43c 2acc 43bd 6cbb a1bc 8f06 e73b
00000340: cf0b 083e 3de3 b03d 5b11 483d bb36 f53d
00000350: d066 a23d b9ff 0f3d ff78 cf3d d417 3b3d
00000360: c60b 353d a054 953c a15b 363d 9606 413d
00000370: 0d9a 8b3d d148 833c d08a 3b3d a8f7 573d
00000380: e043 93bc 751f 953c ffaa 553c c586 643c
00000390: cc5b b53c 3e08 6f3c d1aa f7bc b37e 243c
000003a0: b321 943d b4f4 3b3d ce02 9e3d c890 983d
000003b0: 9608 3d3d ed43 a63c a246 933d 54f9 55bd
000003c0: d1b0 753d 95df 2f3d a77f 44bd 40e9 c2bb
000003d0: 38f5 873d 7c4e 6b3d 83d4 513d ae3a cc3d
000003e0: 515f a53d e4c5 663d b540 a03d a3a5 143d
000003f0: 611b be3c af7e 0a3e 151e ea3d bb36 d63d

blocks.1.conv1.weight f4 [16, 16, 3, 3]
0.025233153 0.015988616 -0.039253462 -0.06543839 0.062406573 -0.055789385 -0.044824887 0.024867939
0.05649229 0.051047824 0.09223401 0.058547087 0.007859878 0.10280712 0.04883446 0.06595718
0.036883652 0.025100071 -0.041773472 -0.022489887 -0.0032579277 0.07213967 0.05502063 0.033985876
0.050809093 0.013507068 0.028479017 -0.03730211 -0.030297091 -0.05027821 -0.019388245 -0.0049767047
-0.015774898 0.0018122433 0.0027812582 0.005162731 0.0063649607 0.09094604 0.02939431 -0.0070406054
0.06020848 0.0059043514 0.02282257 0.10167273 0.04176495 0.03231144 0.04177154 0.025224736
0.045653515 0.07271657 -0.023440707 0.04913463 -0.009072927 0.06787812 -0.018660923 -0.027617726
-0.044485748 0.013339292 -0.0013885128 0.03999162 -0.0055524106 0.06471134 -0.036355037 0.04393383
0.06355976 -0.0015274188 0.05697737 -0.0003054821 0.01354277 0.07761868 0.09420792 -0.019694645
-0.056191914 -0.022731496 -0.0046029883 -0.07047954 -0.018278541 -0.009115381 -0.038152073 -0.027548725
-0.027447665 -0.02980938 -0.037052743 -0.053881142 -0.019527096 -0.028664902 -0.04245627 -0.01200017
-0.030689683 -0.05425342 -0.061655473 -0.08961967 -0.06046165 -0.0641129 -0.068088785 -0.056197803
-0.061318308 -0.08058235 -0.03267211 -0.0558106 -0.09981679 -0.036253415 -0.099038586 -0.020222548
-0.034809917 -0.066226624 -0.025285356 -0.09077881 0.030998653 -0.0066404063 -0.08365922 -0.027328063
-0.0420747 0.051692482 0.0064009465 -0.0034531474 0.034731746 -0.021155402 -0.045898244 -0.055302747
-0.031098805 -0.018717881 0.07711134 -0.0045721084 0.080703974 0.05500072 -0.0027614364 -0.0036497486
-0.01847398 -0.0003658628 -0.01034704 -0.016246697 -0.013277779 -0.013861885 -0.024044737 0.051541824
0.045278054 -0.024293179 6.121954e-05 0.019381845 0.022940492 -0.019232994 0.103166535 0.10246439
0.1380041 0.14769553 0.14111128 0.16170426 0.1415373 0.17382026 0.17378774 0.16351354
0.18178964 0.096934386 0.11112927 0.092167355 0.10135969 0.095488 0.112475276 0.10262387
0.10620252 0.09265616 0.10540257 0.12737265 0.087918624 0.12189024 0.09165489 0.13955404
0.11323919 0.10475553 0.07769171 -0.04674346 -0.07454557 -0.050538488 -0.047910724 -0.08564531
-0.073038384 -0.027257921 -0.06412295 -0.05789492 0.11903464 0.12194554 0.112823844 0.09530055
0.09797253 0.07986215 0.09836938 0.094344534 0.057652738 0.12872769 0.14152545 0.17729244
0.14004925 0.17762718 0.19408838 0.15622595 0.17136736 0.12357637 0.061566424 0.08367609
0.07246953 0.08425714 0.086748265 0.10173082 0.102231175 0.10353926 0.092734404 0.08506282
0.08478451 0.09452737 0.101196125 0.1116601 0.08623404 0.10339171 0.10291108 0.108257145
-0.00958669 -0.0153452605 -0.043080356 0.014001721 -0.02473592 -0.015473786 0.023153057 -0.00046053797
-0.02785579 -0.05831037 -0.06767373 -0.049880836 -0.014283597 -0.035658542 -0.018165372 0.016819824
-0.01465675 -0.007919873 -0.0025016721 -0.011837252 0.0024262867 0.029231284 0.010461517 0.020850837
0.056923065 0.03774485 0.03696667 0.017531822 0.012965453 0.031402387 0.04684337 0.03515588
0.041396607 0.06883669 0.046936154 0.05113193 0.041419026 0.0033091302 0.039913 0.04654761
00000000: c2b5 ce3c 8ffa 823c 3dc8 20bd 9004 86bd
00000010: 099e 7f3d 6983 64bd 4d9a 37bd d9b7 cb3c
00000020: 7664 673d 8617 513d 2fe5 bc3d 12cf 6f3d
00000030: b8c6 003c 8a8c d23d a506 483d 8f14 873d
00000040: 5013 173d aa9e cd3c a91a 2bbd b63c b8bc
00000050: f582 55bb f7bd 933d 505d 613d c634 0b3d
00000060: 321d 503d c04c 5d3c d44c e93c 19ca 18bd
00000070: 9b31 f8bc 86f0 4dbd 19d4 9ebc a013 a3bb
00000080: 5c3a 81bc cb88 ed3a c545 363b 202c a93b
00000090: 2991 d03b eb41 ba3d 56cc f03c e1b4 e6bb
000000a0: 2b9d 763d 4a79 c13b 66f6 ba3c cb39 d03d
000000b0: b911 2b3d 0059 043d a218 2b3d 1ba4 ce3c
000000c0: 2eff 3a3d 6dec 943d ba06 c0bc 6541 493d
000000d0: 9da6 14bc af03 8b3d cbde 98bc 923e e2bc
000000e0: b036 36bd 0c8d 5a3c c2fe b5ba 41ce 233d
000000f0: fff0 b5bb 6187 843d 05e9 14bd f6f3 333d
00000100: 9f2b 823d ac33 c8ba 1a61 693d 1d29 a0b9
00000110: 7fe2 5d3c 8bf6 9e3d 15f0 c03d aa56 a1bc
00000120: 7e29 66bd 6737 babc aad4 96bb 9457 90bd
00000130: e1bc 95bc ae58 15bc 5945 1cbd ddad e1bc
00000140: edd9 e0bc cd32 f4bc 9ec4 17bd 79b2 5cbd
00000150: 4af7 9fbc a8d2 eabc a0e6 2dbd 5c9c 44bc
00000160: ee68 fbbc d638 5ebd 738a 7cbd 848a b7bd
00000170: a3a6 77bd a04d 83bd 2272 8bbd ab2f 66bd
00000180: e828 7bbd 5c08 a5bd 31d3 05bd a899 64bd
00000190: bf6c ccbd 767e 14bd bed4 cabd c2a9 a5bc
000001a0: d894 0ebd d3a1 87bd 3c23 cfbc 3eea b9bd
000001b0: e3f0 fd3c c497 d9bb 8655 abbd 1adf dfbc
000001c0: 8556 2cbd 7fbb 533d 08bf d13b 334e 62bb
000001d0: e042 0e3d 184e adbc ccff 3bbd 2285 62bd
000001e0: ecc2 febc 3e56 99bc 8dec 9d3d a0d1 95bb
000001f0: 2048 a53d 6f48 613d 37f9 34bb 9f30 6fbb
00000200: be56 97bc 46d1 bfb9 a286 29bc cb17 85bc
00000210: 0b8b 59bc f61c 63bc 78f9 c4bc 851d 533d
00000220: 7b75 393d 7d02 c7bc fe62 8038 adc6 9e3c
00000230: b3ed bb3c 838e 9dbc fa48 d33d dad8 d13d
00000240: f250 0d3e 7f3d 173e 7a7f 103e cd95 253e
00000250: 27ef 103e f0fd 313e 6af5 313e 1870 273e
00000260: 1027 3a3e 8985 c63d be97 e33d 3dc2 bc3d
00000270: ab95 cf3d 368f c33d 7059 e63d 772c d23d
00000280: b580 d93d 83c2 bd3d 4ddd d73d fa6d 023e
00000290: ae0e b43d 97a1 f93d 8fb5 bb3d 41e7 0e3e
000002a0: f3e9 e73d 118a d63d d51c 9f3d 1276 3fbd
000002b0: 59ab 98bd 7201 4fbd 093e 44bd cf66 afbd
000002c0: 2695 95bd 014c dfbc e552 83bd 3923 6dbd
000002d0: 6fc8 f33d 95be f93d 3010 e73d ef2c c33d
000002e0: d2a5 c83d c48e a33d e375 c93d b537 c13d
000002f0: 4725 6c3d 31d1 033e 0cec 103e 268c 353e
00000300: 1269 0f3e e6e3 353e 1bbf 463e b2f9 1f3e
00000310: ed7a 2f3e 9c15 fd3d 132d 7c3d 5f5e ab3d
00000320: e86a 943d 028f ac3d 13a9 b13d 4058 d03d
00000330: 945e d13d 640c d43d 89eb bd3d 6a35 ae3d
00000340: 80a3 ad3d 9197 c13d ea3f cf3d 0dae e43d
00000350: 799b b03d 08bf d33d 0bc3 d23d ecb5 dd3d
00000360: 7e11 1dbc b06a 7bbc 0775 30bd 7967 653c
00000370: fca2 cabc c385 7dbc 7bab bd3c 5c74 f1b9
00000380: d331 e4bc dbd6 6ebd 8698 8abd d94f 4cbd
00000390: bf05 6abc b10e 12bd 8ccf 94bc bac9 893c
000003a0: dd22 70bc 5bc2 01bc 18f3 23bb 09f1 41bc
000003b0: 5602 1f3b 7276 ef3c c866 2b3c 60cf aa3c
000003c0: 2928 693d 589a 1a3d 5d6a 173d e59e 8f3c
000003d0: 0d6d 543c ca9f 003d d5de 3f3d 9dff 0f3d
000003e0: 7d8f 293d 40fa 8c3d 2040 403d b76f 513d
000003f0: ffa6 293d fedd 583b d07b 233d b5a8 3e3d

blocks.1.conv2.weight f4 [16, 16, 3, 3]
0.06275416 0.027540416 0.03137896 0.062153026 0.048884522 -0.00714907 0.06366495 0.035427425
0.053511202 0.016197082 0.045617234 0.014427431 0.038895093 0.069872774 0.039860696 0.016760234
0.059985798 0.04717394 0.05491111 0.06849918 -0.012157845 -0.0021216823 0.016477978 0.091601595
0.032697313 -0.0049547213 0.042805217 0.046343163 0.044255883 0.050221805 0.006567581 0.07213476
0.051528804 0.036523648 -0.0025001487 0.012444732 0.041108143 0.043359898 0.019790579 0.033464152
0.08266482 0.07211937 0.08210358 0.086225696 0.05336265 -0.009433094 -0.057837866 -0.055324424
-0.0015500018 -0.053326257 -0.053201254 0.026636856 0.03282925 -0.010982987 0.03986229 0.095459364
0.05862742 0.019943243 0.061929643 0.081365116 0.056735735 0.016253235 0.033792485 0.03285022
-0.013429772 0.055681586 0.06083768 0.01841695 0.03897901 -0.024674162 -0.0036725374 0.011140273
-1.3123356e-17 -5.0145554e-18 5.8167283e-18 -2.4853705e-17 -1.5229616e-17 -2.1087234e-17 -1.1150619e-17 -9.425925e-18
-1.550846e-17 -0.009190955 0.07590376 0.0547726 0.007518633 0.07054102 0.080952086 -0.007995532
0.031776357 0.05971466 0.024038574 0.10469032 0.079173796 0.05740592 0.118564464 0.026465608
0.060533438 0.062133588 0.042721488 0.0053083873 0.013024619 0.013219858 -0.0034318697 0.020399846
0.0105689615 0.0012999487 0.011198155 0.008352037 0.03699636 0.030619867 0.012688916 0.030472798
0.040046997 0.038612742 0.03684139 0.021653198 0.050465826 -0.008796424 -0.041910697 -0.069728404
-0.013577923 -0.05098101 -0.04331305 0.049820803 0.0032349625 0.014913869 -0.02311591 0.0861721
0.067157395 0.054712113 0.0771673 0.01881813 -0.0017461175 0.051340513 0.042945545 -0.039396156
-0.0952534 -0.11355836 -0.04245245 -0.10321555 -0.09324031 0.043851346 -0.03704678 -0.0039667357
0.034688007 0.055191197 0.05445218 -0.010462415 -0.010240591 0.017776832 0.03993695 0.036761735
-0.009423081 0.018970374 0.02536401 0.015042825 0.01923492 0.018532658 0.018244142 -0.0012641626
0.026222037 0.022695243 -0.003989876 -0.004196917 -0.016117366 0.0038438735 0.013317726 0.029054828
0.024077581 -0.011586704 0.033793733 0.016138537 -0.013363477 0.0483857 0.037238047 -0.019406222
0.03390248 0.02666792 0.0136500625 0.025132025 0.030262817 0.009115645 0.003586178 -0.024251627
0.0040487945 -0.0006036821 -0.018289719 -0.00793393 0.02427199 -0.039354395 -0.038407322 -0.02520806
-0.0013097732 -0.022142092 -0.024324225 -0.027545761 -0.069323644 -0.08345733 0.027875287 0.030917704
0.04570964 0.008828225 -8.536056e-05 0.041133374 -0.043100893 0.02847205 -0.016914535 -0.021965181
0.058270216 0.00042628875 0.035492238 0.038228657 0.03202783 0.021498453 0.056373604 0.04970781
2.0589876e-20 -2.4162664e-23 1.809451e-21 2.2117654e-20 2.7025942e-19 2.3039087e-19 9.852473e-21 5.995709e-20
-1.0516283e-18 0.024585042 0.009406498 0.006710649 0.0354615 0.0013097529 -0.023502806 -0.0068009864
-0.009693596 0.05229781 0.017138645 0.057605572 0.057669733 0.046667106 0.016071333 0.019060912
-0.012472542 0.051336665 0.036895297 0.0031394458 0.021586422 0.019622859 -0.01251794 0.020446997
0.012592161 -0.005411137 0.010079325 0.011869193 -0.0043407837 0.06437186 0.03559708 0.016627567
00000000: 4185 803d 709c e13c 3987 003d 2c94 7e3d
00000010: 233b 483d bf42 eabb c562 823d 591c 113d
00000020: 902e 5b3d beaf 843c 23d9 3a3d 0861 6c3c
00000030: 7650 1f3d 7519 8f3d f844 233d c24c 893c
00000040: abb3 753d 7639 413d 79ea 603d 4c49 8c3d
00000050: b331 47bc ec0b 0bbb d3fc 863c 9e99 bb3d
00000060: 9eed 053d 375b a2bb 8654 2f3d 54d2 3d3d
00000070: a845 353d 61b5 4d3d dd34 d73b 64bb 933d
00000080: de0f 533d d299 153d 89d9 23bb fde4 4b3c
00000090: 0361 283d 269a 313d da1f a23c b511 093d
000000a0: 2c4c a93d 52b3 933d ec25 a83d 1997 b03d
000000b0: cb92 5a3d 448d 1abc 66e7 6cbd dd9b 62bd
000000c0: 6e29 cbba a26c 5abd 8fe9 59bd 8935 da3c
000000d0: f777 063d fcf1 33bc a446 233d 3380 c33d
000000e0: 4e23 703d 0360 a33c f0a9 7d3d c1a2 a63d
000000f0: bb63 683d 8125 853c fd69 0a3d f48d 063d
00000100: 8c08 5cbc 6012 643d ee30 793d 25df 963c
00000110: 74a8 1f3d 7821 cabc f4ae 70bb b185 363c
00000120: 4c15 72a3 2301 b9a2 7299 d622 273c e5a3
00000130: ea77 8ca3 d37e c2a3 4fb1 4da3 ace0 2da3
00000140: 510a 8fa3 a995 16bc 6e73 9b3d 3c59 603d
00000150: dd5e f63b cf77 903d 35ca a53d b1ff 02bc
00000160: ed27 023d 5c97 743d 8bec c43c e167 d63d
00000170: df25 a23d 7822 6b3d edd1 f23d 67ce d83c
00000180: e9f1 773d ca7f 7e3d bafc 2e3d fbf1 ad3b
00000190: 3665 553c 1a98 583c 38e9 60bb 941d a73c
000001a0: 7029 2d3c 0a63 aa3a 7778 373c fbd6 083c
000001b0: 7f89 173d 84d6 fa3c 2ce5 4f3c 17a2 f93c
000001c0: 5208 243d 6528 1e3d ffe6 163d 0c62 b13c
000001d0: 41b5 4e3d e01e 10bc 8daa 2bbd c4cd 8ebd
000001e0: f075 5ebc 77d1 50bd 0669 31bd e610 4c3d
000001f0: aa01 543b 4d59 743c 945d bdbc ff7a b03d
00000200: d189 893d cf19 603d e409 9e3d 7b28 9a3c
00000210: fbdd e4ba 6e4a 523d abe7 2f3d dd5d 21bd
00000220: 3714 c3bd 4991 e8bd 9fe2 2dbd ad62 d3bd
00000230: c7f4 bebd 789d 333d 5dbe 17bd 64fb 81bb
00000240: 0315 0e3d 2a10 623d 4009 5f3d 8d6a 2bbc
00000250: 27c8 27bc b8a0 913c ed94 233d 7993 163d
00000260: 4463 1abc c267 9b3c 2fc8 cf3c 2e76 763c
00000270: 8d92 9d3c cdd1 973c bd74 953c 42b2 a5ba
00000280: 99cf d63c 60eb b93c 81bd 82bb 4b86 89bb
00000290: 9108 84bc 7fe9 7b3b 9732 5a3c 6404 ee3c
000002a0: 593e c53c 29d6 3dbc 4c6b 0a3d f734 843c
000002b0: 7cf2 5abc 1530 463d ec86 183d ccf9 9ebc
000002c0: 54dd 0a3d af76 da3c 83a4 5f3c ade1 cd3c
000002d0: bae9 f73c c959 153c 1506 6b3b 59ab c6bc
000002e0: c0ab 843b 6c40 1eba 52d4 95bc 50fd 01bc
000002f0: 0dd6 c63c 1332 21bd ff50 1dbd 2281 cebc
00000300: b2ac abba 5563 b5bc 9943 c7bc a6a7 e1bc
00000310: 8ef9 8dbd adeb aabd b75a e43c 2047 fd3c
00000320: 083a 3b3d 42a4 103c 9a03 b3b8 787b 283d
00000330: 908a 30bd 373e e93c 5a90 8abc 53f0 b3bc
00000340: c0ac 6e3d 827f df39 4f60 113d a795 1c3d
00000350: 9d2f 033d 861d b03c 02e8 663d 6b9a 4b3d
00000360: 4477 c21e dcaf e999 dfb7 081d 35e5 d01e
00000370: 7388 9f20 afff 8720 a31b 3a1e d691 8d1f
00000380: 6531 9ba1 9266 c93c b61d 1a3c 01e5 db3b
00000390: 1440 113d 04ac ab3a f588 c0bc cfda debb
000003a0: e3d1 1ebc 3a36 563d 5866 8c3c d2f3 6b3d
000003b0: 1937 6c3d 0226 3f3d 07a8 833c a125 9c3c
000003c0: a259 4cbc 6546 523d 861f 173d 29bf 4d3b
000003d0: 02d6 b03c 1ec0 a03c 0c18 4dbc 7680 a73c
000003e0: 5a4f 4e3c e84f b1bb c123 253c 0177 423c
000003f0: 223d 8ebb 65d5 833d 3ece 113d 8936 883c

fc1.weight f4 [32, 16]
-1.8981954e-30 -5.5331976e-37 -8.760498e-37 1.1048597e-24 -7.94801e-40 -5.1306316e-16 6.7195085e-31 4.907e-41
4.9293e-41 -6.095904e-26 -8.114777e-08 6.450753e-30 2.3949527e-31 -8.637902e-35 -7.5820155e-13 2.2509767e-31
0.021212624 0.04506505 -0.13442944 -0.13802367 0.09705111 0.082447216 0.0029908738 0.05743881
0.105367556 0.09484379 0.046020906 0.008510559 0.035451062 -0.16198444 -0.039233726 -0.01048045
0.0876607 0.01601607 0.1098456 -0.06136525 -0.025501436 0.14736734 -0.061123885 0.02587707
0.10763441 -0.03793566 -0.21515967 0.008126289 -0.11806613 0.12656732 -0.14841866 0.14093375
-0.04762332 0.088903494 -0.19242164 -0.18338165 0.011563759 0.008712149 -0.035083316 0.020626301
-0.23868911 -0.016653102 0.1369008 0.17283258 -0.12078134 -0.21346015 -0.28800046 -0.03753176
0.011216742 0.117002435 -0.023064308 0.25618047 0.07419187 0.055543106 0.06710553 0.16070203
0.006225862 -0.1351876 -0.03154973 -0.20677178 0.025420513 -0.03118739 0.17773415 0.12054325
0.0016120049 -0.0029287173 0.042950407 -0.021225983 -0.025310107 0.106063664 -0.010024306 0.029991958
-0.052385744 -0.008053824 0.052900366 0.03553172 0.027305376 0.005715844 -0.09965728 -0.014679102
0.06529998 -0.041755453 -0.2174761 -0.16186015 -0.23039196 -0.03516422 -0.0101107815 -0.18446186
-0.26161376 0.10772625 0.084285356 0.20728883 -0.04763695 -0.2717598 -0.19855374 -0.2131097
-2.18012e-13 -9.782909e-37 2.5428847e-33 -4.2744e-41 -1.1309052e-21 -2.4896069e-10 -1.7184883e-22 -5.1981e-19
1.4600707e-25 -5.3462755e-14 -1.3309475e-11 -5.2533225e-12 -3.825038e-21 -3.3556044e-27 1.2322457e-24 2.9522128e-19
0.0009805625 -2.568449e-08 0.0020027228 -8.309852e-25 -0.00035304445 -4.1872026e-05 -4.9131e-41 -0.0042222757
1.0434401e-06 -7.027411e-32 4.9163e-41 -5.101e-41 -0.0045281 0.004379254 4.8003e-41 0.000986729
0.07533183 0.17060433 -0.14862 0.06694328 0.07536704 0.16542062 -0.1533055 0.18326488
0.13724978 -0.040397197 0.025850307 -0.19042274 -0.048091687 -0.12059725 0.12332252 0.03432478
0.18354535 -0.23500702 -0.2837711 -0.1835142 -0.19645377 0.24730435 0.16751279 0.11387025
-0.1344972 -0.022159016 0.17388372 -0.00756841 0.10096906 -0.012413489 -0.20257863 0.07832746
0.1481334 -0.1651773 0.05803046 0.22721225 0.2875624 0.22391947 -0.16537812 0.26743793
-0.15039302 0.03731263 0.16071013 -0.0036068775 0.24128813 0.02857279 0.177066 0.08684517
0.06208122 -0.035480596 0.21543685 -0.04972941 0.21476865 -0.11807837 -0.20557222 0.17128032
-0.12616304 0.08430375 -0.4981914 -0.0062485742 0.0335217 0.024042554 -0.11298906 0.14103429
-0.3490536 -0.08730547 -0.07738896 0.0991255 -0.13272038 0.030134123 -0.083937615 -0.10706167
0.025582666 -0.16525863 0.018454457 -0.24514918 0.047556665 -0.044954304 0.071224846 -0.060793765
0.072182216 0.13487722 0.025278863 0.07894076 0.11064383 0.05565766 -0.13840777 0.19215195
0.055983186 -0.18026559 0.08480977 -0.116698526 -0.050591137 0.25945938 0.005990828 0.10840955
-0.05013105 0.022423277 -0.22510004 0.12814352 -0.029774161 0.1998121 0.16671708 0.11749807
0.17508255 0.08623838 0.22563134 0.09625495 -0.23690979 -0.07806692 0.20816353 -0.10064762
00000000: faff 198e f348 3c83 5a0d 9583 00f8 aa17
00000010: 95a7 0880 61e1 13a6 7e0f 5a0d ca88 0000
00000020: 6989 0000 62ed 9695 7543 aeb3 39d6 020f
00000030: fa70 9b0c 84a2 e586 2e6a 55ab c418 920c
00000040: 19c6 ad3c 2196 383d dfa7 09be 1456 0dbe
00000050: bbc2 c63d 16da a83d 8902 443b f544 6b3d
00000060: f2ca d73d 763d c23d 6b80 3c3d df6f 0b3c
00000070: 2235 113d 40df 25be 8bb3 20bd 31b6 2bbc
00000080: 7487 b33d 2234 833c bbf6 e03d 215a 7bbd
00000090: 63e8 d0bc 77e7 163e 0a5d 7abd 26fc d33c
000000a0: 6e6f dc3d 6c62 1bbd d152 5cbe 2024 053c
000000b0: a8cc f1bd dd9a 013e 10fb 17be f050 103e
000000c0: ac10 43bd 0913 b63d 2e0a 45be 66c8 3bbe
000000d0: ec75 3d3c 67bd 0e3c 86b3 0fbd 7df8 a83c
000000e0: eb6a 74be 166c 88bc b92f 0c3e 06fb 303e
000000f0: 355c f7bd 4c95 5abe cc74 93be e7ba 19bd
00000100: 6dc6 373c f99e ef3d 5cf1 bcbc 162a 833e
00000110: e8f1 973d 2b81 633d a06e 893d 138f 243e
00000120: 5102 cc3b 9e6e 0abe 4a3a 01bd fbbb 53be
00000130: ae3e d03c b37c ffbc f1ff 353e 61df f63d
00000140: e949 d33a b9ef 3fbb c4ec 2f3d 1de2 adbc
00000150: 2457 cfbc e837 d93d fd3c 24bc b2b1 f53c
00000160: 6f92 56bd 30f4 03bc 0eae 583d b589 113d
00000170: 86af df3c fa4b bb3b 1e19 ccbd 9e80 70bc
00000180: ffbb 853d c407 2bbd 0eb2 5ebe abbe 25be
00000190: dfeb 6bbe 5b08 10bd b1a7 25bc 92e3 3cbe
000001a0: 3df2 85be 959f dc3d cd9d ac3d 8643 543e
000001b0: f61e 43bd 1a24 8bbe ac51 4bbe 6e39 5abe
000001c0: ae75 75aa 9472 a683 2d41 5309 2777 0080
000001d0: c7e5 aa9c 1ade 88af a3c0 4f9b bc6b 19a1
000001e0: 7dbf 3416 5cc6 70a9 8c24 6aad b9d5 b8ac
000001f0: 7f81 909d dfed 8493 48ae be17 9444 ae20
00000200: 3886 803a caa0 dcb2 1d40 033b b796 8097
00000210: d318 b9b9 bf9f 2fb8 f588 0080 045b 8abb
00000220: 540c 8c35 2871 b68b 0c89 0000 328e 0080
00000230: 7560 94bb d87f 8f3b d085 0000 2255 813a
00000240: 9347 9a3d e7b2 2e3e d72f 18be 8f19 893d
00000250: 095a 9a3d 0664 293e 1efc 1cbe caa9 3b3e
00000260: 358b 0c3e 8877 25bd 06c4 d33c 2efe 42be
00000270: cafb 44bd b1fb f6bd 8490 fc3d 2498 0c3d
00000280: 50f3 3b3e aea5 70be 724a 91be 25eb 3bbe
00000290: 2d2b 49be 5a3d 7d3e 7988 2b3e ce34 e93d
000002a0: a2b9 09be d386 b5bc 930e 323e 6d00 f8bb
000002b0: dec8 ce3d f261 4bbc c670 4fbe 266a a03d
000002c0: 48b0 173e 3d24 29be 59b1 6d3d 54aa 683e
000002d0: 613b 933e 254b 653e e258 29be a0ed 883e
000002e0: a100 1abe 21d5 183d 3291 243e 5d61 6cbb
000002f0: 3c14 773e 7c11 ea3c ca50 353e e1db b13d
00000300: e148 7e3d 1a54 11bd 7a9b 5c3e 11b1 4bbd
00000310: 50ec 5b3e 13d3 f1bd 8681 52be 1c64 2f3e
00000320: e230 01be 72a7 ac3d f112 ffbe d7c0 ccbb
00000330: 0d4e 093d e4f4 c43c cf66 e7bd 4b6b 103e
00000340: 27b7 b2be 36cd b2bd 1a7e 9ebd 4f02 cb3d
00000350: dae7 07be d6db f63c 7ce7 abbd 2643 dbbd
00000360: bd92 d13c 8f39 29be cd2d 973c 6308 7bbe
00000370: c7ca 423d 0122 38bd 55de 913d e202 79bd
00000380: 45d4 933d 411d 0a3e 9e15 cf3c b1ab a13d
00000390: 3b99 e23d 49f9 633d c4ba 0dbe 7bc3 443e
000003a0: a04e 653d 8b97 38be bfb0 ad3d a3ff eebd
000003b0: a738 4fbd dcd7 843e b54e c43b d305 de3d
000003c0: 3756 4dbd 05b1 b73c a080 66be 0e38 033e
000003d0: f1e8 f3bc 8b9b 4c3e e2b7 2a3e d4a2 f03d
000003e0: d748 333e bf9d b03d e70b 673e 5121 c53d
000003f0: 7b98 72be 8de1 9fbd d228 553e 5720 cebd

fc1.bias f4 [32]
3.8733985e-28 0.06615278 0.17611653 0.3572973 0.111218534 0.05573293 0.08794234 -1.7891288e-17
-0.0013179331 -0.028865244 0.048223708 -0.077036716 -0.18762279 0.1399668 0.15429458 0.27358362
4.9376e-41 -3.845075e-13 0.15627776 0.013234678 0.009762403 -0.060956877 0.04525912 0.019180238
-0.104460515 -0.14752209 0.1026679 0.08047187 0.055051953 -0.107279085 0.096740656 0.24403635
00000000: 7c81 f511 1c7b 873d e457 343e acef b63e
00000010: 8bc6 e33d 3648 643d 1d1b b43d 9c04 a5a3
00000020: 7fbe acba ce76 ecbc 3986 453d 6dc5 9dbd
00000030: 3020 40be 7553 0f3e 66ff 1d3e 2713 8c3e
00000040: a489 0000 5f75 d8aa 4707 203e 43d6 583c
00000050: 7cf2 1f3c ebad 79bd a161 393d e01f 9d3c
00000060: 65ef d5bd 0810 17be 8c43 d23d 70ce a43d
00000070: 287e 613d 23b5 dbbd f71f c63d aae4 793e

fc2.weight f4 [1, 32]
1.1265069e-09 -0.0484323 0.09914973 -0.37290737 0.11233637 -0.0086231455 -0.6693924 -4.3639524e-05
4.9246e-41 0.12825966 -0.23651502 0.12603791 0.48669413 0.33209255 0.16250548 -0.17231523
4.933e-41 1.2941095e-13 0.16587679 0.015592896 0.12314092 0.20043872 0.10046594 0.08933311
0.15506123 0.37537873 0.0027595162 -0.13562532 0.23526216 0.14777827 0.17251176 -0.06827114
00000000: 70d3 9a30 f360 46bd 030f cb3d b7ed bebe
00000010: 9c10 e63d 1848 0dbc 4d5d 2bbf 9509 37b8
00000020: 4789 0000 8056 033e fe30 72be 1510 013e
00000030: f92f f93e 0908 aa3e d667 263e 6773 30be
00000040: 8389 0000 2bb4 112a 9bdb 293e 5979 7f3c
00000050: 4f31 fc3d cf3f 4d3e 16c1 cd3d 47f4 b63d
00000060: 5fc8 1e3e a431 c03e 00d9 343b 5de1 0abe
00000070: 90e8 703e 3053 173e eca6 303e bdd1 8bbd
