src/value_net.pth (torch, 352236 bytes, 57 tensors)

conv_in.weight f4 [32, 18, 3, 3]
0.035107013 -0.09769764 0.01870247 -0.018574663 0.0032331506 -0.04534822 0.003980901 -0.025832497
0.14797994 0.15766168 0.048863687 0.13029578 0.07085864 0.09297672 0.095577404 -0.026683774
-0.004474341 0.041855413 -0.038004573 -0.10666646 0.06995325 -0.017882796 0.019251822 0.06284962
-0.011418652 -0.049978845 0.03362998 -0.048690226 0.016879626 0.048974648 0.04559389 0.050986543
0.13165395 0.047702953 -0.028241776 0.16686733 -0.048993647 0.028787928 0.06889108 0.03450858
0.0714471 0.21258406 -0.024033321 0.051625 0.12139021 -0.022558356 0.022984572 -0.17712855
0.009175752 0.0168334 -0.067586906 -0.048635248 -0.024722282 -0.08769711 -0.0019318879 -0.02266551
-0.087823614 0.10167179 0.073052615 0.008339105 0.0100703705 -0.053060792 0.00035407837 0.0021985194
-0.11397488 -0.09781296 0.0074864165 0.0021850055 -0.036688387 -0.0037169459 0.11651011 -0.03435059
0.031250615 0.07938294 -0.041004673 0.00752414 -0.08850767 -0.029430302 0.0884396 0.07847566
0.061504852 0.028708648 0.01783124 -0.054557577 -0.027875567 0.04602001 -0.08109695 0.14640094
0.06186434 -0.03877739 0.081885315 0.031615596 0.031441215 0.10262796 -0.026622776 -0.010000233
0.08435764 -0.03348355 -0.04391732 0.017159797 0.09343139 0.041323945 -0.007660317 0.068143375
-0.0006398836 -0.026607992 0.027853837 -0.024816625 0.01696574 -0.036105603 0.03260357 -0.014505296
0.017065102 -0.015496635 -0.040959876 0.02754805 -0.06864359 -0.0048469394 -0.047215797 0.014124665
-0.020235015 -0.006786021 -0.008469599 -0.0385438 0.062670745 0.019917767 -0.025683645 -0.03107172
-0.00017417151 0.053455975 -0.010971699 -0.051111035 0.011704016 -0.012067612 -0.011420324 -0.01005858
-0.048894487 0.009386524 0.035004146 0.022156805 -0.011206642 0.053470735 -0.07107755 0.009523848
0.035288118 0.037676897 -0.060793974 -0.05662915 0.045790195 0.03571213 -0.026119167 -0.033600055
-0.025215963 0.009370671 -0.032993756 -0.00016434955 0.01759116 -0.013548195 0.002386366 0.019764744
-0.005336683 -0.0029663313 -0.14163268 -0.03140502 -0.08225256 -0.026439467 0.075222515 -0.030433636
-0.08387013 0.06294893 -0.03363172 -0.042464294 -0.016151438 -0.06773245 -0.13830316 -1.1979826e-05
0.039566383 -0.07723936 0.01373143 -0.005319167 0.031532962 0.04344115 -0.06691877 -0.0029162273
0.08669325 0.03779417 -0.0772306 0.071738005 -0.008191581 -0.097962104 0.007761494 -0.07461001
0.014237489 0.028758707 0.050178144 -0.042821676 0.023952011 0.016427213 -0.07024791 0.05057006
-0.07763983 -0.050121266 -0.015182168 0.094669476 -0.024028737 0.05550958 0.08552074 -0.14278091
-0.13393992 -0.102850445 -0.018001672 -0.19511083 -0.13791087 -0.063653074 -0.12260744 -0.0922535
-0.002714156 -0.085977755 0.012168917 0.095497906 0.015920768 0.077322826 -0.008331982 0.11470629
-0.058486436 0.021602424 -0.08047946 -0.02868405 0.005416231 -0.011394781 -0.013251874 0.004916313
-0.09410589 0.022431476 -0.0065211877 -0.012822482 0.003433381 -0.05560087 -0.07804149 0.046442796
-0.07019032 -0.08806839 -0.091697946 0.14366172 -0.082024135 -0.009871789 -0.0042540277 -0.169664
-0.026610982 -0.057079483 -0.20244601 -0.07343186 0.07796686 -0.13291435 0.004034871 -0.09948954
00000000: 5fcc 0f3d b315 c8bd ec35 993c e429 98bc
00000010: 44e3 533b 0ebf 39bd 3872 823b ac9e d3bc
00000020: 0e88 173e 1072 213e 4a25 483d 426c 053e
00000030: 561e 913d 946a be3d 16be c33d ee97 dabc
00000040: 7e9d 92bb 9570 2b3d afaa 1bbd f273 dabd
00000050: a643 8f3d f17e 92bc ffb5 9d3c 4db7 803d
00000060: 4c15 3bbc 9eb6 4cbd 97bf 093d 676f 47bd
00000070: 2447 8a3c a499 483d a9c0 3a3d 44d7 503d
00000080: 4bd0 063e 2c64 433d 4c5b e7bc 45df 2a3e
00000090: 90ad 48bd a9d4 eb3c c416 8d3d de58 0d3d
000000a0: db52 923d a3af 593e 87e1 c4bc bc74 533d
000000b0: 6e9b f83d 4dcc b8bc 244a bc3c 3061 35be
000000c0: e555 163c 33e6 893c 016b 8abd c135 47bd
000000d0: 6286 cabc 8b9a b3bd 6737 fdba 05ad b9bc
000000e0: dedc b3bd 4d39 d03d 9c9c 953d bea0 083c
000000f0: 32fe 243c 4656 59bd 98a3 b939 0915 103b
00000100: a96b e9bd 2952 c8bd 9d50 f53b 4f32 0f3b
00000110: 9046 16bd 0198 73bb da9c ee3d 34b3 0cbd
00000120: a500 003d 8693 a23d 84f4 27bd 108d f63b
00000130: 8243 b5bd d117 f1bc d21f b53d d9b7 a03d
00000140: 83ec 7b3d 662e eb3c d212 923c c477 5fbd
00000150: 4d5b e4bc 7a7f 3c3d 2816 a6bd 21ea 153e
00000160: 7665 7d3d 0ad5 1ebd 7db3 a73d 5b7f 013d
00000170: 81c8 003d 9c2e d23d 0218 dabc 04d8 23bc
00000180: b3c3 ac3d 0c26 09bd a6e2 33bd b492 8c3c
00000190: f558 bf3d 4c43 293d 6503 fbbb c18e 8b3d
000001a0: ddbd 27ba 01f9 d9bc bb2d e43c 3c4c cbbc
000001b0: bcfb 8a3c 78e3 13bd 528b 053d 9fa7 6dbc
000001c0: 1dcc 8b3c 99e5 7dbc 8bc5 27bd 73ac e13c
000001d0: 0395 8cbd 13d3 9ebb 5a65 41bd 246b 673c
000001e0: e7c3 a5bc 455d debb 13c4 0abc 1be0 1dbd
000001f0: 8559 803d 962a a33c 8266 d2bc 1f8a febc
00000200: cfa1 36b9 a7f4 5a3d a4c2 33bc ce59 51bd
00000210: 33c2 3f3c 3cb7 45bc 501c 3bbc becc 24bc
00000220: 9645 48bd efc9 193c 8260 0f3d 3082 b53c
00000230: 109c 37bc 2104 5b3d 1b91 91bd ea09 1c3c
00000240: 468a 103d 1753 1a3d 1a03 79bd f8f3 67bd
00000250: 808e 3b3d e246 123d ddf7 d5bc 36a0 09bd
00000260: b591 cebc 7187 193c 7624 07bd 3f55 2cb9
00000270: 561b 903c 40f9 5dbc 9464 1c3b ace9 a13c
00000280: 57df aebb c866 42bb 2808 11be 8da2 00bd
00000290: 0874 a8bd 9597 d8bc 430e 9a3d f64f f9bc
000002a0: 1ac4 abbd 5eeb 803d 6ac1 09bd 0aef 2dbd
000002b0: 0550 84bc 50b7 8abd 589f 0dbe f6fc 48b7
000002c0: 5c10 223d ab2f 9ebd cbf9 603c 684c aebb
000002d0: b528 013d 59ef 313d b50c 89bd 2d1e 3fbb
000002e0: 3b8c b13d 0fce 1a3d 142b 9ebd 60eb 923d
000002f0: fb35 06bc 5ba0 c8bd 2154 fe3b 22cd 98bd
00000300: 5b44 693c 6197 eb3c 9987 4d3d c865 2fbd
00000310: 0237 c43c 5d92 863c 23de 8fbd 8d22 4f3d
00000320: a201 9fbd f54b 4dbd a1be 78bc 12e2 c13d
00000330: ead7 c4bc 035e 633d 7f25 af3d 2935 12be
00000340: 8c27 09be 41a3 d2bd 3e78 93bc 22cb 47be
00000350: 8238 0dbe 8b5c 82bd 9c19 fbbd 67ef bcbd
00000360: fbdf 31bb 1b15 b0bd 2360 473c 6894 c33d
00000370: 456c 823c 6e5b 9e3d de82 08bc 22eb ea3d
00000380: 798f 6fbd 91f7 b03c 6ad2 a4bd d0fa eabc
00000390: a47a b13b 2db1 3abc 631e 59bc 0619 a13b
000003a0: 97ba c0bd 37c2 b73c b0af d5bb 6315 52bc
000003b0: 9302 613b bdbd 63bd 37d4 9fbd cd3a 3e3d
000003c0: f1bf 8fbd 335d b4bd 22cc bbbd 0f1c 133e
000003d0: 45fc a7bd 49bd 21bc 5f65 8bbb 66bc 2dbe
000003e0: 46ff d9bc 2dcc 69bd 024e 4fbe 7163 96bd
000003f0: 17ad 9f3d b31a 08be f336 843b 2cc1 cbbd

conv_in.bias f4 [32]
-1.8333442e-06 -1.3528418e-05 6.886771e-06 1.1099045e-06 5.131508e-06 8.320763e-06 4.0125644e-05 1.6036682e-05
3.228682e-07 -1.3959798e-05 3.7482725e-06 -9.940461e-06 -3.128544e-06 -5.908092e-08 -2.1389671e-05 -3.0762396e-05
3.337769e-06 -1.8027855e-05 1.2530459e-06 -8.295816e-06 -4.2488966e-07 4.9958826e-06 -3.870766e-06 -1.6943281e-06
-1.6889846e-05 -4.5275365e-06 1.4784996e-06 -6.671185e-06 5.634998e-06 9.064689e-05 7.4321815e-06 3.3396213e-05
00000000: 3a11 f6b5 1df8 62b7 ea14 e736 07f8 9435
00000010: 512f ac36 6899 0b37 954c 2838 8386 8637
00000020: ab56 ad34 e034 6ab7 d58a 7b36 f4c5 26b7
00000030: faf3 51b6 29c0 7db3 f86d b3b7 df06 01b8
00000040: 6ffe 5f36 863a 97b7 542e a835 422e 0bb7
00000050: 641c e4b4 4ea2 a736 a0e1 81b6 ac68 e3b5
00000060: abae 8db7 3eeb 97b6 dc70 c635 0bd9 dfb6
00000070: 4414 bd36 ae19 be38 f461 f936 e912 0c38

bn_in.weight f4 [32]
0.8275497 0.84377897 0.8689903 0.82349986 0.8579315 0.892784 0.9457321 0.9193928
0.8501428 0.9291438 0.7852525 0.79452443 0.79226387 0.84636587 0.85522264 0.9228159
0.83415174 0.8245949 0.9131786 0.8653593 0.853483 0.8014558 0.8763895 0.75650036
0.81164455 0.6864149 0.70776623 0.8082461 0.8433402 0.9360089 0.85115176 0.905476
00000000: 4cda 533f e601 583f 2676 5e3f e3d0 523f
00000010: 66a1 5b3f 7e8d 643f 801b 723f 545d 6b3f
00000020: f5a2 593f 5edc 6d3f 4f06 493f f465 4b3f
00000030: ced1 4a3f 6fab 583f dfef 5a3f aa3d 6c3f
00000040: f88a 553f a718 533f 13c6 693f 3088 5d3f
00000050: dd7d 5a3f 352c 4d3f 105b 603f 02aa 413f
00000060: f0c7 4f3f e3b8 2f3f 2b30 353f 37e9 4e3f
00000070: 25e5 573f 479e 6f3f 15e5 593f 46cd 673f

bn_in.bias f4 [32]
-0.041026115 0.013170773 -0.0041023977 -0.087113775 -0.0487922 -0.05351017 0.011983103 0.0093940105
-0.04981261 0.009760033 -0.09996479 -0.018506628 -0.040472984 -0.073521025 -0.042698856 0.0011029753
-0.015875427 -0.06578409 0.008763452 -0.005385492 -0.084192164 -0.05305196 -0.046177 -0.04966685
-0.030744951 -0.04404541 -0.049924154 -0.04976235 0.0075153345 0.022373086 -0.073257156 -0.0030747869
00000000: 000b 28bd 3aca 573c 686d 86bb b568 b2bd
00000010: 54da 47bd 7b2d 5bbd c754 443c 56e9 193c
00000020: 4f08 4cbd 8ce8 1f3c 57ba ccbd 369b 97bc
00000030: 00c7 25bd 3192 96bd ffe4 2ebd b691 903a
00000040: 2f0d 82bc cfb9 86bd 9594 0f3c c878 b0bb
00000050: f16c acbd 034d 59bd 1824 3dbd 786f 4bbd
00000060: d6dc fbbc f668 34bd 457d 4cbd 9bd3 4bbd
00000070: 3243 f63b c347 b73c d907 96bd 5d82 49bb

bn_in.running_mean f4 [32]
-0.04887693 -0.13760975 -0.07249595 -0.0247696 0.0349734 -0.034219377 -0.099578805 -0.07922976
0.012212999 -0.12366693 0.10636161 -0.04350154 0.15746766 0.14540382 -0.003158255 -0.07190103
-0.21043919 0.001545147 -0.019351758 -0.1150027 0.020315843 0.044792917 0.03632991 -0.031544976
-0.021991026 -0.0861092 0.0027564676 -0.055048797 -0.048571244 -0.100038 0.05818957 -0.08116379
00000000: 2d33 48bd 92e9 0cbe c278 94bd 9ee9 cabc
00000010: 4540 0f3d 9e29 0cbd f9ef cbbd 3643 a2bd
00000020: 0819 483c 1645 fdbd 1ed4 d93d ac2e 32bd
00000030: 343f 213e bde4 143e bafa 4ebb d940 93bd
00000040: 5f7d 57be 8886 ca3a 9487 9ebc 8986 ebbd
00000050: 696d a63c c778 373d acce 143d 4e35 01bd
00000060: 8626 b4bc 055a b0bd daa5 343b d97a 61bd
00000070: a4f2 46bd b9e0 ccbd 3058 6e3d 3339 a6bd

bn_in.running_var f4 [32]
0.014797138 0.02429371 0.013131335 0.012391287 0.032847263 0.01324295 0.029291464 0.029202439
0.022205655 0.033189777 0.018391533 0.011684931 0.023648584 0.030237934 0.012219008 0.018878281
0.03833951 0.015511606 0.014596833 0.04614668 0.016758097 0.011844387 0.014791893 0.02237172
0.022773264 0.014315891 0.012471206 0.028303206 0.01662493 0.027105642 0.01795527 0.018909777
00000000: b26f 723c 9a03 c73c d024 573c d304 4b3c
00000010: da8a 063d f5f8 583c a7f4 ef3c f439 ef3c
00000020: a2e8 b53c 01f2 073d d7a9 963c 2772 3f3c
00000030: adba c13c 8bb5 f73c 3c32 483c a0a6 9a3c
00000040: e409 1d3d 6424 7e3c 8e27 6f3c 4d04 3d3d
00000050: 4748 893c f60e 423c b259 723c e644 b73c
00000060: ff8e ba3c 338d 6a3c 0754 4c3c 20dc e73c
00000070: 0131 883c a70c de3c ee16 933c ade8 9a3c

blocks.0.conv1.weight f4 [32, 32, 3, 3]
-0.00012237801 0.060805574 0.048126176 -0.03499351 -0.020073172 -0.023877714 -0.04209997 0.048068248
-0.015238126 -0.062945455 -0.0024836143 0.10335852 -0.040610746 0.01798871 0.04433829 0.0028239118
-0.0065762424 0.045361634 0.010580529 -0.010765429 0.009779936 -0.060589734 -0.05739127 0.015114777
-0.049184565 -0.035548892 0.045443676 -0.020554272 -0.07683038 -0.021751592 -0.022573346 -0.013738903
-0.02861413 -0.065836065 0.006364828 -0.02063632 -0.06150468 -0.032701053 -0.0081373295 0.030641638
-0.03140055 0.012918107 0.021192933 -0.06601485 0.042754147 0.025468346 -0.014957287 0.020574503
0.0347635 0.054093387 -0.0012028635 0.062873185 0.05471731 0.008520818 0.056213357 -0.0072322693
0.020089041 0.038314696 -0.015921505 -0.031158932 0.028082987 -0.02494178 0.023703752 -0.062256847
-0.08378132 -0.026363213 -0.081083804 -0.07537286 -0.020564435 0.01701408 -0.07573834 -0.01024479
0.08630564 -0.018167919 0.012893968 0.046325173 0.04325133 0.042813253 0.031484913 0.00098201
0.028180122 -0.010265397 0.036701083 -0.05023523 0.022585887 0.011410223 0.016072102 -0.07966337
0.051587723 0.026736109 -0.041232847 -0.04030393 -0.0075004213 -0.021010313 0.035071936 -0.032896556
0.0073802136 -0.018696241 -0.05115986 -0.038851734 -0.019834852 -0.045490827 -0.0051865214 -0.011348501
0.0112755615 -0.08100056 -0.0037883401 0.02689887 -0.062309276 -0.01666516 -0.07265006 0.028242117
0.019368632 -0.00075972005 -0.08118627 0.007233767 -0.01641557 -0.026066115 -0.005473133 -0.05293352
-0.015598886 -0.015647285 -0.017295444 -0.023215575 0.02214872 -0.033983104 0.032741833 0.015735751
-0.034851257 -0.039317805 0.021872642 0.01193352 0.0008106792 -0.019879874 -0.046202134 -0.011013171
-0.024038613 0.03143193 -0.0031743213 -0.025367888 -0.04377337 0.051207848 0.008057945 -0.08290905
-0.062002517 0.031103158 -0.039225657 0.025834754 -0.015388372 -0.012881038 0.04498019 0.026779577
-0.021166863 -0.046527233 -0.053137645 0.0050810697 -0.067771815 -0.07470553 -0.020072458 -0.032506306
-0.061956566 -0.034611743 0.05691184 -0.020065123 0.028894806 0.014651697 0.0051766573 0.0061603566
-0.0031744647 -0.02969307 -0.07409477 -0.012403135 -0.013038022 -0.03161122 -0.04910494 0.009323461
-0.021338208 0.0023001367 -0.037859812 -0.032873686 0.06419838 0.02122385 -0.08254974 0.05285052
-0.028699787 -0.0010997026 0.003740151 -0.051202726 -0.036204454 0.022362918 -0.055888828 -0.06465668
-0.0005301626 -0.034672968 0.023781896 -0.0019980294 0.030498097 -0.0049944706 0.010658681 0.06286738
0.015042318 -0.011250818 -0.015053643 0.0193153 0.023650454 0.020276949 -0.0048675556 -0.02349797
-0.037697967 0.01388185 0.0062743486 0.04346609 -0.03347215 -0.043260757 -0.051067077 0.02055784
0.03382718 0.042073738 -0.0035974095 0.035457276 -0.010223042 0.04813907 0.037935693 0.0494729
0.011509781 0.028064502 -0.014877751 0.010805319 0.05405561 -0.062042866 -0.01716978 -0.069803976
-0.023153534 -0.015361585 -0.06529723 -0.02114413 0.044814564 -0.028048942 -0.053660568 -0.054289084
0.021496143 0.029813763 -0.026193237 0.041396108 -0.022906793 0.027807659 0.04620734 0.006091496
0.004836055 -0.023455009 0.04812607 -0.009529809 0.071852215 0.0632115 0.07529416 -0.023052135
00000000: 9952 00b9 440f 793d f41f 453d 5b55 0fbd
00000010: 7e70 a4bc 329b c3bc 0571 2cbd 36e3 443d
00000020: 55a9 79bc 8ce9 80bd 22c4 22bb a2ad d33d
00000030: 7457 26bd 0f5d 933c 119c 353d 6111 393b
00000040: 857d d7bb 1fcd 393d f559 2d3c 7b61 30bc
00000050: 063c 203c f12c 78bd 1c13 6bbd f8a3 773c
00000060: c175 49bd b79b 11bd 2623 3a3d 6f61 a8bc
00000070: 3f59 9dbd 6530 b2bc bdeb b8bc 2319 61bc
00000080: 2e68 eabc 0fd5 86bd 0c90 d03b 800d a9bc
00000090: 55ec 7bbd 8af1 05bd 6f52 05bc 2c04 fb3c
000000a0: dd9d 00bd 78a6 533c cd9c ad3c cb32 87bd
000000b0: f91e 2f3d fea2 d03c 690f 75bc dc8b a83c
000000c0: 2c64 0e3d 0791 5d3d 67a9 9dba a8c3 803d
000000d0: 421f 603d e79a 0b3c fa3f 663d acfc ecbb
000000e0: c691 a43c dfef 1c3d d16d 82bc 0441 ffbc
000000f0: 4b0e e63c b452 ccbc 5f2e c23c 0901 7fbd
00000100: 8a95 abbd aaf7 d7bc 440f a6bd 165d 9abd
00000110: bf76 a8bc 1d61 8b3c b41c 9bbd c4d9 27bc
00000120: 03c1 b03d e3d4 94bc 3941 533c 77bf 3d3d
00000130: 4e28 313d f35c 2f3d 53f6 003d cab6 803a
00000140: 00da e63c 3230 28bc e053 163d 75c3 4dbd
00000150: 0a06 b93c f2f1 3a3c a4a9 833c 8d26 a3bd
00000160: a64d 533d af05 db3c c6e3 28bd bc15 25bd
00000170: 18c6 f5bb d21d acbc 97a7 0f3d 8abe 06bd
00000180: b8d5 f13b dc28 99bc 008d 51bd ff22 1fbd
00000190: b37c a2bc 9754 3abd b2f3 a9bb 10ef 39bc
000001a0: 22bd 383c 9fe3 a5bd cd45 78bb 055b dc3c
000001b0: 0338 7fbd 6085 88bc 8ec9 94bd 035c e73c
000001c0: f7aa 9e3c f327 47ba fd44 a6bd 3c09 ed3b
000001d0: f279 86bc 9b88 d5bc f857 b3bb d2d0 58bd
000001e0: 7892 7fbc bc2e 80bc 2daf 8dbc 972e bebc
000001f0: 3c71 b53c de31 0bbd 4d1c 063d 43e8 803c
00000200: 31c0 0ebd b50b 21bd 412e b33c d084 433c
00000210: c383 543a 1edb a2bc 733e 3dbd 9670 34bc
00000220: a0ec c4bc c4be 003d 4608 50bb 51d0 cfbc
00000230: b54b 33bd 52bf 513d 7905 043c 38cc a9bd
00000240: 5af6 7dbd 0dcc fe3c 15ab 20bd 68a3 d33c
00000250: 831f 7cbc fd0a 53bc 263d 383d d860 db3c
00000260: 2166 adbc 5793 3ebd dca6 59bd 1a7f a63b
00000270: f3cb 8abd 37ff 98bd ff6e a4bc 5525 05bd
00000280: 2bc6 7dbd 0bc5 0dbd 641c 693d 9d5f a4bc
00000290: cdb4 ec3c ac0d 703c f3a0 a93b d1dc c93b
000002a0: ae0a 50bb e23e f3bc 00bf 97bd 8536 4bbc
000002b0: 6e9d 55bc c47a 01bd 4322 49bd 6ec1 183c
000002c0: 77cd aebc e4bd 163b e412 1bbd 8fa6 06bd
000002d0: 717a 833d a4dd ad3c d70f a9bd c979 583d
000002e0: d11b ebbc e523 90ba 521d 753b f3b9 51bd
000002f0: 1f4b 14bd 7032 b73c afeb 64bd b96a 84bd
00000300: 9cfa 0aba 3e05 0ebd 40d2 c23c 5ff1 02bb
00000310: 25d7 f93c a8a8 a3bb c0a1 2e3c 9dc0 803d
00000320: 0e74 763c 5a55 38bc 8ea3 76bc 1f3b 9e3c
00000330: 99be c13c d81b a63c 0480 9fbb d17e c0bc
00000340: 2f69 1abd b370 633c 0d99 cd3b 8009 323d
00000350: 181a 09bd 3132 31bd b62b 51bd ea68 a83c
00000360: 5e8e 0a3d 8355 2c3d 84c2 6bbb a63b 113d
00000370: 8c7e 27bc 792d 453d 7562 1b3d 18a4 4a3d
00000380: 8593 3c3c 87e7 e53c cfc1 73bc cb08 313c
00000390: 6a69 5d3d a920 7ebd a3a7 8cbc 63f5 8ebd
000003a0: 7bac bdbc 28af 7bbc 8eba 85bd 7436 adbc
000003b0: 7a8f 373d e5c6 e5bc 2fcb 5bbd 3b5e 5ebd
000003c0: ae18 b03c fe3b f43c 3393 d6bc f78e 293d
000003d0: 07a7 bbbc e3cc e33c e843 3d3d 2c9b c73b
000003e0: c577 9e3b b824 c0bc d81f 453d ea22 1cbc
000003f0: 4127 933d 0875 813d d333 9a3d d5d7 bcbc

blocks.0.conv1.bias f4 [32]
-2.9133855e-06 1.3065556e-06 8.9021387e-07 2.083011e-06 -5.8094497e-07 -7.242082e-06 -3.1793707e-07 3.1281204e-06
-1.563662e-06 -2.0035982e-06 1.6125147e-06 1.9114589e-06 -1.4580417e-07 8.122857e-08 -4.8054226e-06 1.8666634e-06
-2.1448611e-06 -6.0253376e-07 -1.0613584e-06 -3.197901e-06 2.5721854e-06 -5.237618e-07 2.2324657e-06 4.1112407e-06
5.6061617e-06 2.400121e-06 -1.7222959e-07 1.762038e-06 -2.9427185e-06 3.967379e-07 -1.5647913e-06 3.1102013e-06
00000000: 9583 43b6 e95c af35 08f7 6e35 dbc9 0b36
00000010: 3cf2 1bb5 0301 f3b6 f0b0 aab4 b3ec 5136
00000020: 04df d1b5 8e75 06b6 956d d835 9d46 0036
00000030: 588e 1cb4 e16f ae33 443e a1b6 118a fa35
00000040: 6ff0 0fb6 cebd 21b5 ff73 8eb5 859b 56b6
00000050: cf9d 2c36 a398 0cb5 78d1 1536 4af3 8936
00000060: 901c bc36 c411 2136 1cee 38b4 2a7f ec35
00000070: 857b 45b6 3eff d434 d205 d2b5 dab8 5036

blocks.0.bn1.weight f4 [32]
0.73377216 0.7668689 0.8196032 0.7712388 0.6055852 0.89177203 0.7575328 0.67556614
0.8719275 0.77706254 0.94051963 0.7355403 0.6397424 0.7492303 0.7127081 0.80384004
0.9110353 0.8195232 0.6622935 0.70408547 0.78714013 0.7477027 0.7908592 0.7407086
0.85480255 0.808795 0.69171005 0.70390695 0.7938338 0.7042225 0.72846514 0.8671618
00000000: 7ed8 3b3f 8551 443f 84d1 513f e86f 453f
00000010: a207 1b3f 2c4b 643f abed 413f e7f1 2c3f
00000020: a436 5f3f 92ed 463f e5c5 703f 5e4c 3c3f
00000030: 28c6 233f 8fcd 3f3f 0a74 363f 76c8 4d3f
00000040: 9c39 693f 46cc 513f 118c 293f f23e 343f
00000050: 0482 493f 7269 3f3f c075 4a3f 149f 3d3f
00000060: 57d4 5a3f 300d 4f3f e913 313f 3f33 343f
00000070: b138 4b3f ed47 343f b17c 3a3f 51fe 5d3f

blocks.0.bn1.bias f4 [32]
-0.032861836 -0.040092018 -0.034089908 -0.058777463 -0.05301022 0.017913949 -0.011532268 -0.008763593
-0.036298785 -0.09081253 -0.09511833 -0.0403823 -0.047553953 -0.05722487 -0.05875254 -0.0120564895
0.031695303 -0.016821878 -0.016288871 -0.07064201 -0.04517 -0.09657955 -0.024959613 -0.001446657
-0.009820505 0.02627625 0.0039131246 -0.09772083 -0.040091664 -0.005131935 -0.025980765 0.027506834
00000000: 229a 06bd 8737 24bd dca1 0bbd a3c0 70bd
00000010: 3f21 59bd 46c0 923c d6f1 3cbc 2c95 0fbc
00000020: 09ae 14bd ebfb b9bd 66cd c2bd e967 25bd
00000030: efc7 42bd a064 6abd 81a6 70bd 9588 45bc
00000040: efd2 013d 09ce 89bc 3d70 85bc c2ac 90bd
00000050: 2e04 39bd 80cb c5bd 1a78 ccbc c19d bdba
00000060: 2fe6 20bc 4a41 d73c ab39 803b dc21 c8bd
00000070: 2837 24bd ca29 a8bb 9dd5 d4bc 0356 e13c

blocks.0.bn1.running_mean f4 [32]
-0.34885207 -0.10067507 -0.4041685 -0.44760594 0.42618498 -0.4326299 -0.2845333 0.056633115
-0.5890783 -0.525162 -0.91171026 -0.43195906 -0.0348882 0.56640726 -0.14641589 0.32032898
-0.48079807 -0.37578246 -0.46618336 -0.29879645 -0.81367725 -0.3686646 -0.582848 0.07292113
-0.9893527 0.24498414 0.10845241 0.21278523 -0.18665415 0.7774822 -0.38448578 -0.52502
00000000: bd9c b2be bb2e cebd 2cef cebe 9b2c e5be
00000010: eb34 da3e ab81 ddbe 59ae 91be 20f8 673d
00000020: d6cd 16bf 0471 06bf d865 69bf bd29 ddbe
00000030: eee6 0ebd 1100 113f 0cee 15be 2902 a43e
00000040: 2a2b f6be 8f66 c0be 96af eebe d9fb 98be
00000050: 274d 50bf 9bc1 bcbe 8735 15bf ac57 953d
00000060: 3846 7dbf 1fdd 7a3e 4c1c de3d 5fe4 593e
00000070: 4422 3fbe 1309 473f 52db c4be b667 06bf

blocks.0.bn1.running_var f4 [32]
0.17770082 0.19172256 0.21948159 0.16240583 0.1860496 0.25700104 0.21834494 0.09745996
0.49427792 0.21430212 0.46694395 0.22494121 0.0877957 0.19266915 0.17385522 0.17544743
0.31957522 0.1856985 0.16952871 0.110023156 0.20196535 0.17168207 0.12691584 0.15035672
0.32110146 0.17229041 0.13972567 0.16024944 0.27817985 0.19834024 0.22927468 0.4227381
00000000: 34f7 353e eb52 443e c8bf 603e b74d 263e
00000010: c983 3e3e a495 833e d195 5f3e 1699 c73d
00000020: ff11 fd3e 0472 5b3e 4713 ef3e fd56 663e
00000030: 3bce b33d 104b 453e 1a07 323e 7ea8 333e
00000040: 5d9f a33e bf27 3e3e ef98 2d3e d253 e13d
00000050: 01d0 4e3e 6dcd 2f3e 3af6 013e 1df7 193e
00000060: 6967 a43e e66c 303e 3f14 0f3e 6e18 243e
00000070: 976d 8e3e b419 4b3e fbc6 6a3e 2171 d83e

blocks.0.conv2.weight f4 [32, 32, 3, 3]
-0.042211507 0.00078821165 -0.0057242587 0.058015756 -0.019887242 0.017849391 -0.012502417 -0.0155102955
-0.04121876 0.03172377 -0.010136411 -0.08685897 0.061929267 -0.01444086 -0.034447864 0.05492411
-0.011657104 0.021853054 -0.076371476 -0.045605034 -0.022239096 0.024588091 0.08049878 0.062346604
0.03195623 0.054596994 0.05204075 0.02511442 0.04538797 -0.020329176 0.01761572 -0.09616794
-0.024462372 0.031510428 -0.110701784 -0.044336256 -0.033738278 -0.036868956 0.022574259 0.029162515
0.029355494 -0.013834797 -0.02390768 -0.042602394 -0.0016474542 0.046160184 0.066808425 0.0144641
0.08158637 0.035703253 0.009842365 0.061338477 0.06264907 0.024673184 0.016236208 -0.018644629
-0.039246976 0.02060029 0.016315086 0.045153987 0.08831724 0.07307229 0.008045689 0.053874675
-0.013435736 -0.039691355 -0.0041189925 0.027214637 -0.01459682 -0.048221104 -0.04335585 -0.09731726
0.081989974 0.06315606 0.05378027 0.059344888 -0.005775369 -0.01700013 0.024713835 0.037395988
0.010707566 0.028869564 -0.013729666 -0.020303402 0.0015415594 -0.052103363 -0.0012549438 0.017427664
-0.0001753733 -0.039042477 0.079046935 0.061110947 0.063345365 0.027483048 0.040226337 0.11024619
0.017699737 0.028079115 0.03734353 0.067901604 0.0820742 -0.045582023 0.025713142 -0.020518806
0.044934414 -0.020519381 0.007017977 0.0006480686 -0.03495701 -0.03953939 0.006216583 0.05709599
0.022068849 -0.025362365 -0.0059645995 0.034590643 0.017893814 -0.061834693 -0.008933845 -0.01418472
0.0055397796 -0.05762927 -0.036350437 -0.09735828 -0.06472494 -0.10578458 -0.039164074 0.039103575
0.0071038203 -0.03016695 -0.058553193 0.0054138387 -0.036268607 -0.055086352 -0.0019339571 -0.04767754
-0.005775339 -0.06713587 -0.03580912 0.02928504 0.010347596 0.017623618 -0.06780321 -0.06555741
-0.024013892 -0.015654176 -0.001865168 -0.034822363 0.012151593 -0.026536522 0.012831508 -0.026039885
-0.03766542 -0.0037473931 0.034549195 -0.049735595 0.018836793 -0.007850892 0.017713854 -0.0033595222
0.020980742 -0.057808824 0.028189573 -0.0021559554 0.027336407 0.010606861 0.008350678 -0.018757604
0.021101795 -0.037333716 -0.032651033 -0.02837222 0.06189723 0.029350951 -0.047078192 -0.038719114
0.029857194 0.056890797 0.011774526 -0.01167721 -0.014483921 -0.0012734471 -0.059747502 0.0524358
0.009854112 -0.009109824 -0.015576227 0.0047480958 -0.044431657 -0.043413784 0.031359978 0.022479586
0.036677092 0.021819571 0.0684057 0.054936435 0.014475668 0.06317217 -0.0037901518 0.038534705
0.045662586 0.007802545 0.05992911 -0.018988492 -0.0003412334 -0.02393573 0.0054907156 -0.007771017
0.0024044677 0.023741754 -0.08673217 -0.015191107 -0.06525073 -0.044740792 0.026905717 0.0339369
0.040867217 -0.009281599 -0.01568432 -0.046709236 -0.033776198 0.045271065 -0.028829632 -0.03409793
0.0586281 -0.040925585 0.0263451 -0.016795428 -0.0039409 0.076246835 0.071659274 0.050437123
0.042699814 0.03383393 -0.0039848387 -0.0068308734 -0.004991414 0.010375137 -0.009335087 0.020644056
-0.019569201 -0.05272162 -0.083367735 -0.021279028 0.01984194 0.00942967 -0.0051764986 0.015825052
0.048560835 0.07954826 0.039125565 -0.048531774 -0.05167574 -0.031118007 0.028048536 -0.00088159717
00000000: f9e5 2cbd fd9f 4e3a 9092 bbbb eea1 6d3d
00000010: 92ea a2bc e338 923c f0d6 4cbc e51e 7ebc
00000020: 01d5 28bd c9f0 013d 3013 26bc 1ee3 b1bd
00000030: 8ba9 7d3d 5b99 6cbc 3419 0dbd 1bf8 603d
00000040: 70fd 3ebc 2d05 b33c a668 9cbd 58cc 3abd
00000050: c42e b6bc f76c c93c 8bdc a43d 275f 7f3d
00000060: 89e4 023d 19a1 5f3d ae28 553d c2bc cd3c
00000070: bce8 393d 5f89 a6bc d84e 903c b2f3 c4bd
00000080: 5065 c8bc 1411 013d 9eb7 e2bd ef99 35bd
00000090: 2631 0abd e703 17bd a7ed b83c 3ae6 ee3c
000000a0: ef7a f03c 58ab 62bc 0ada c3bc d97f 2ebd
000000b0: 64ef d7ba 7612 3d3d dbd2 883d d5fa 6c3c
000000c0: c116 a73d 933d 123d df41 213c 0e3e 7b3d
000000d0: 284e 803d 6b1f ca3c cc01 853c 9fbc 98bc
000000e0: 70c1 20bd f0c1 a83c 37a7 853c 63f3 383d
000000f0: abdf b43d eda6 953d 11d2 033c b1ab 5c3d
00000100: 9021 5cbc 6793 22bd 9df8 86bb 3bf1 de3c
00000110: 8027 6fbc 7e83 45bd e795 31bd 464e c7bd
00000120: 5cea a73d f757 813d b348 5c3d a013 733d
00000130: 4e3f bdbb db43 8bbc ab74 ca3c 892c 193d
00000140: c96e 2f3c dd7f ec3c 65f2 60bc 5253 a6bc
00000150: 260e ca3a 566a 55bd ed7c a4ba 76c4 8e3c
00000160: 69e4 37b9 01eb 1fbd 5ce3 a13d 794f 7a3d
00000170: 37bb 813d 2124 e13c 5fc4 243d c1c8 e13d
00000180: 0aff 903c 2c06 e63c 88f5 183d ff0f 8b3d
00000190: 8516 a83d 37b4 3abd 5ea4 d23c 0e17 a8bc
000001a0: 260d 383d 4318 a8bc 0ff7 e53b 26e3 293a
000001b0: 152f 0fbd 0ef4 21bd 7ab4 cb3b 7cdd 693d
000001c0: bbc9 b43c bcc4 cfbc b072 c3bb ebae 0d3d
000001d0: 0c96 923c 6046 7dbd 435f 12bc 0767 68bc
000001e0: 0a87 b53b ab0c 6cbd 32e4 14bd c763 c7bd
000001f0: 828e 84bd 96a5 d8bd 826a 20bd 122b 203d
00000200: 2ac7 e83b ae20 f7bc 79d5 6fbd 9266 b13b
00000210: 648e 14bd 3aa2 61bd d57c fdba 8649 43bd
00000220: 0e3f bdbb 887e 89bd 95ac 12bd 2ee7 ef3c
00000230: f788 293c 685f 903c 69dc 8abd f742 86bd
00000240: c8b8 c4bc 303d 80bc a778 f4ba e5a1 0ebd
00000250: 7a17 473c 1f63 d9bc 3f3b 523c 9951 d5bc
00000260: 0e47 1abd d396 75bb 7583 0d3d 8db7 4bbd
00000270: 9e4f 9a3c 07a1 00bc a51c 913c 6e2b 5cbb
00000280: cedf ab3c f2c8 6cbd d2ed e63c ee4a 0dbb
00000290: 9af0 df3c 66c8 2d3c 48d1 083c 8ca9 99bc
000002a0: acdd ac3c 3deb 18bd 17bd 05bd dc6c e8bc
000002b0: f387 7d3d 6871 f03c 10d5 40bd ef97 1ebd
000002c0: 1397 f43c 5306 693d f1e9 403c c551 3fbc
000002d0: f84d 6dbc cbe9 a6ba ccb9 74bd ecc6 563d
000002e0: 2473 213c 5f41 15bc 6e33 7fbc ea95 9b3b
000002f0: f8fd 35bd a7d2 31bd 5273 003d 1c27 b83c
00000300: b83a 163d f5be b23c 4a18 8c3d 0705 613d
00000310: 5a2b 6d3c 6960 813d 3264 78bb 91d6 1d3d
00000320: b108 3b3d 7eac ff3b 3a78 753d c18d 9bbc
00000330: 92e7 b2b9 dd14 c4bc 76eb b33b 04a4 febb
00000340: 4694 1d3b 117e c23c a3a0 b1bd 1fe4 78bc
00000350: 2da2 85bd 1f42 37bd 6169 dc3c 6b01 0b3d
00000360: 6264 273d d911 18bc 677c 80bc 2f52 3fbd
00000370: e958 0abd 276e 393d 1f2c ecbc 45aa 0bbd
00000380: 0524 703d 96a1 27bd aed1 d73c 9196 89bc
00000390: aa22 81bb 4d27 9c3d 19c2 923d 2897 4e3d
000003a0: 00e6 2e3d 7295 0a3d 4093 82bb 85d5 dfbb
000003b0: 048f a3bb 7bfc 293c 31f2 18bc b91d a93c
000003c0: 974f a0bc a0f2 57bd b4bc aabd 5b51 aebc
000003d0: 908b a23c e77e 1a3c 9e9f a9bb 8aa3 813c
000003e0: bae7 463d 33ea a23d 2142 203d 41c9 46bd
000003f0: f1a9 53bd 31eb febc 0bc6 e53c fc1a 67ba

blocks.0.conv2.bias f4 [32]
-2.7925603e-06 -3.479993e-06 -4.7902195e-06 -1.7934477e-06 1.5027189e-06 1.2255143e-06 -3.3347092e-06 -3.0467904e-06
-3.1121695e-06 -2.560608e-06 1.0931254e-06 3.5866346e-06 -2.1537119e-06 4.3927607e-06 -9.837051e-07 5.152661e-07
-4.0909435e-06 4.5360346e-07 3.7362508e-06 4.4611107e-07 1.06710225e-07 -4.8287325e-07 -5.9407665e-07 2.1615635e-06
9.372908e-07 -2.2879456e-06 -1.0506858e-06 5.529424e-06 6.305937e-06 1.5503324e-06 -3.9021664e-08 -1.9906624e-06
00000000: d267 3bb6 d389 69b6 acbb a0b6 65b6 f0b5
00000010: 07b1 c935 5a7c a435 dec9 5fb6 7677 4cb6
00000020: aada 50b6 e9d6 2bb6 81b7 9235 eab1 7036
00000030: 7d88 10b6 8765 9336 da07 84b5 d150 0a35
00000040: f044 89b6 c986 f334 4dbc 7a36 0a81 ef34
00000050: 9128 e533 cc9e 01b5 a378 1fb5 610f 1136
00000060: 229a 7b35 9b8a 19b6 4a05 8db5 6489 b936
00000070: 9697 d336 0415 d035 c698 27b3 5297 05b6

blocks.0.bn2.weight f4 [32]
0.85888 0.6891416 0.6975003 0.7780185 0.70882565 0.7212612 0.79404944 0.78842044
0.8886603 0.72798836 0.78980935 0.88766575 0.8731383 0.8654177 0.9321325 0.6759656
0.89255327 0.7340105 0.79140615 0.7035325 0.7346711 0.7687789 0.7759151 0.7083409
0.8161274 0.69824207 0.8754864 0.881443 0.8297716 0.7135639 0.77815175 0.68362254
00000000: 8fdf 5b3f 956b 303f 618f 323f 382c 473f
00000010: 9975 353f 93a4 383f d346 4b3f ecd5 493f
00000020: 3e7f 633f 725d 3a3f f230 4a3f 103e 633f
00000030: fe85 5f3f 048c 5d3f 3ca0 6e3f 150c 2d3f
00000040: 5f7e 643f 1de8 3b3f 9899 4a3f b51a 343f
00000050: 6813 3c3f b2ce 443f 5fa2 463f d455 353f
00000060: baed 503f febf 323f e01f 603f 40a6 613f
00000070: e96b 543f 20ac 363f f434 473f e301 2f3f

blocks.0.bn2.bias f4 [32]
-0.03086611 -0.021325078 -0.06436157 -0.044186514 -0.08385787 -0.060344897 -0.0115144495 -0.033131387
-0.03019875 -0.118308865 -0.0054148086 -0.035988998 -0.02831715 -0.050925545 -0.020728473 -0.059804343
0.0030899069 -0.02627074 -0.09308362 -0.11727098 -0.035847723 -0.08181602 -0.009909931 -0.008221667
-0.07850246 -0.0391391 -0.05253893 0.004048583 -0.0059839413 -0.010580973 -0.045745086 -0.049564406
00000000: edda fcbc eeb1 aebc 00d0 83bd ebfc 34bd
00000010: adbd abbd 362c 77bd 1aa7 3cbc c7b4 07bd
00000020: 5e63 f7bc eb4b f2bd b56e b1bb 3369 13bd
00000030: 5ef9 e7bc 4e97 50bd c2ce a9bc 66f5 74bd
00000040: 0980 4a3b bc35 d7bc a0a2 bebd c42b f0bd
00000050: 10d5 12bd 288f a7bd 435d 22bc 2cb4 06bc
00000060: e6c5 a0bd 5250 20bd 1033 57bd faa9 843b
00000070: f014 c4bb d15b 2dbc 335f 3bbd 0c04 4bbd

blocks.0.bn2.running_mean f4 [32]
0.1851645 -0.2878005 -0.6921317 -0.56364655 -0.14661214 -0.00726376 -0.066835985 -0.22027364
0.10550153 -0.4519523 0.22386612 -0.36481297 0.04726949 -0.22980277 -0.13243158 -0.0031533046
-0.289172 -0.67746514 -0.15071249 -0.73299193 -0.058584355 -0.04017731 0.29938036 0.15242381
-0.10334326 -0.40844217 -0.0023140905 -0.2232534 -0.44101316 -0.23032413 -0.29433426 -0.35695055
00000000: c39b 3d3e 965a 93be 8b2f 31bf 244b 10bf
00000010: 7e21 16be d604 eebb 4ee1 88bd 6a8f 61be
00000020: 3011 d83d 4b66 e7be 293d 653e c4c8 babe
00000030: a79d 413d 6b51 6bbe 259c 07be aca7 4ebb
00000040: 5a0e 94be 5b6e 2dbf 6054 1abe 5ca5 3bbf
00000050: 26f6 6fbd f790 24bd 6248 993e fd14 1c3e
00000060: a2a5 d3bd 551f d1be ffa7 17bb 8a9c 64be
00000070: 7acc e1be 17da 6bbe fbb2 96be 39c2 b6be

blocks.0.bn2.running_var f4 [32]
0.29524657 0.14909694 0.14130338 0.10461255 0.09353681 0.1473453 0.3669462 0.20362386
0.20678857 0.16096558 0.22972056 0.31409836 0.32053643 0.17085212 0.31781816 0.16024946
0.22248071 0.20881513 0.19235454 0.20283814 0.1330704 0.12232717 0.26051456 0.18221383
0.1921064 0.10715461 0.15232278 0.20522669 0.14550935 0.15925138 0.09413408 0.08901228
00000000: 8f2a 973e deac 183e d5b1 103e 1b3f d63d
00000010: 3a90 bf3d b0e1 163e 5fe0 bb3e c682 503e
00000020: 62c0 533e 29d4 243e de3b 6b3e 80d1 a03e
00000030: 5a1d a43e dcf3 2e3e 10b9 a23e 6f18 243e
00000040: fcd1 633e a2d3 553e 97f8 443e cdb4 4f3e
00000050: 9b43 083e ab86 fa3d 2a62 853e 4396 3a3e
00000060: 8ab7 443e e073 db3d 81fa 1b3e f226 523e
00000070: 6700 153e cb12 233e 5ec9 c03d 124c b63d

blocks.1.conv1.weight f4 [32, 32, 3, 3]
0.026610427 0.044277493 -0.0035995988 0.026981423 0.021444155 -0.004967884 -0.014347162 -0.034593116
0.0026892405 -0.0011880436 0.0006096561 -0.03313206 -0.037617903 -0.032557063 0.040187314 -0.007275548
-0.052430663 -0.032038514 -0.0029782252 0.03580047 0.008726092 0.041003674 -0.016069219 -0.054709557
0.007760587 0.027792742 0.006305245 0.07486712 0.08201577 0.03880871 0.027727159 0.00678992
0.03402952 -0.0030536754 -0.023762703 -0.034462143 -0.07795165 -0.0045693154 -0.0074621923 -0.03901268
-0.053360436 -0.018613296 -0.06023923 0.0040268367 -0.0060443697 -0.031594668 -0.030258529 -0.004049152
-0.06461615 0.02060669 0.011855245 -0.0544871 -0.048942015 0.020838058 0.02755147 -0.031477742
-0.05263401 -0.02190715 -0.057839002 -0.022002598 0.025137698 -0.020596907 -0.0024045603 0.018936459
0.055656202 -0.025950285 0.022095338 0.0431756 -0.006466242 0.016450688 0.04843321 0.020557677
0.0005608015 -0.0016327256 0.006386985 -0.03768208 -0.032548975 -0.015448954 -0.03731747 -0.01198711
0.04040936 0.014773533 0.020381123 -0.029182166 0.03696233 0.042209614 -0.015175885 0.0307153
-0.03709393 0.019625463 -0.070692025 -0.033550885 -0.016752552 -0.0063449256 -0.017688211 -0.022172144
0.012171163 -0.012835643 -0.034771662 0.014186378 -0.03091732 0.008744442 0.063084126 0.016960777
0.031294715 0.043313187 -0.00094966835 -0.010306896 -0.046037342 -0.027056826 0.005854109 -0.033402294
-0.028304424 -0.018200532 0.002913422 -8.466449e-05 -0.046845812 0.018281186 0.0032468238 -0.026046379
0.011008219 0.019115284 -0.019931497 0.042625524 0.040542334 0.018702567 0.0030237834 0.05133082
0.0018669952 0.022684643 0.009886252 -0.037512418 -0.01347387 -0.05070761 0.022789584 -0.05179743
-0.046268124 -0.007835592 -0.030202039 0.0025500038 0.032126587 0.04881618 0.07532852 0.02849529
-0.016885256 -0.013388812 -0.019093374 0.049764983 -0.02987825 -0.023132117 -0.033576198 0.018852148
-0.060199037 -0.02953993 -0.012456744 -0.010686962 -0.027492456 -0.036666613 -0.023183439 -0.04488882
0.054461747 0.025946608 0.0238972 -0.005444785 0.014170926 0.035239827 0.0045308936 0.031030683
0.03706629 0.033537656 0.0050702337 0.014280639 -0.01932666 0.019255681 0.012389091 0.030475026
-0.040178847 -0.04541983 -0.005481395 -0.017700583 -0.05568058 -0.09007978 -0.07517032 -0.027497204
0.003536857 0.024088493 0.05356397 0.030013572 0.04419629 -0.050056107 0.016785933 0.044695493
-0.03964003 0.012942684 0.072903685 0.022721242 -0.02610822 0.016174793 0.0287002 -0.006696899
-0.012347979 0.011730065 0.03354202 -0.018498057 -0.0131033445 0.020185607 -0.005762622 -0.022804322
-0.039761685 -0.064459234 0.022226818 -0.032388438 -0.027098343 -0.008302685 0.006302017 -0.04215136
-0.010839861 -0.04062402 -0.05158187 0.0045044264 0.026355168 0.017936917 -0.038842525 -0.036066677
0.039070796 -0.011754398 -0.028016623 -0.021725561 0.0065161055 0.030675007 0.014082116 0.04798247
-0.004425519 0.027426679 -0.02847432 -0.01996099 -0.0105559435 -0.00993103 -0.016122818 0.020373192
0.025250923 -0.04327629 -0.05949299 -0.013619629 0.07513907 0.07581604 0.009728172 0.024912493
0.008499392 0.009808977 0.013915932 0.025912477 0.0049155713 0.029451016 -0.033184987 0.021035805
00000000: 1cfe d93c 515c 353d 3fe7 6bbb 2508 dd3c
00000010: a7ab af3c a2c9 a2bb 5c10 6bbc 83b1 0dbd
00000020: f83d 303b 21b8 9bba 54d1 1f3a 7cb5 07bd
00000030: 3b15 1abd 8e5a 05bd 749b 243d b867 eebb
00000040: 89c1 56bd d13a 03bd 542e 43bb 83a3 123d
00000050: e2f7 0e3c 78f3 273d 98a3 83bc 2117 60bd
00000060: 864c fe3b 9bad e33c 3b9c ce3b ef53 993d
00000070: e2f7 a73d e2f5 1e3d 1124 e33c fa7d de3b
00000080: 8a62 0b3d 2c20 48bb 00aa c2bc 2d28 0dbd
00000090: 1da5 9fbd 32ba 95bb 6885 f4bb c3cb 1fbd
000000a0: 7990 5abd e97a 98bc 69bd 76bd 8ef3 833b
000000b0: d90f c6bb 6969 01bd bce0 f7bc c0ae 84bb
000000c0: 7955 84bd 5ccf a83c 803c 423c de2d 5fbd
000000d0: 6c77 48bd 93b4 aa3c 9fb3 e13c ceee 00bd
000000e0: c296 57bd a076 b3bc 97e8 6cbd cb3e b4bc
000000f0: 93ed cd3c d8ba a8bc d495 1dbb a220 9b3c
00000100: c2f7 633d b195 d4bc 4801 b53c e6d8 303d
00000110: c5e2 d3bb 98c3 863c e761 463d 9368 a83c
00000120: c002 133a 2e01 d6ba ea49 d13b 8658 1abd
00000130: 1352 05bd 9c1d 7dbc 34da 18bd 9565 44bc
00000140: 4984 253d b00c 723c 50f6 a63c 700f efbc
00000150: d065 173d fde3 2c3d 46a4 78bc a79e fb3c
00000160: ceef 17bd 94c5 a03c fbc6 90bd a76c 09bd
00000170: a63c 89bc 18e9 cfbb dee6 90bc 5ba2 b5bc
00000180: 8f69 473c 974c 52bc bb6c 0ebd fb6d 683c
00000190: 5246 fdbc d944 0f3c 4032 813d 54f1 8a3c
000001a0: e32e 003d 2b69 313d 2af3 78ba 41de 28bc
000001b0: a791 3cbd 47a6 ddbc d3d3 bf3b d8d0 08bd
000001c0: aede e7bc 4819 95bc 1cef 3e3b e78d b1b8
000001d0: 65e1 3fbd 6dc2 953c aac8 543b 375f d5bc
000001e0: d15b 343c a897 9c3c 6147 a3bc 1a98 2e3d
000001f0: b80f 263d 2036 993c ab2a 463b 4440 523d
00000200: f7b5 f43a 25d5 b93c f2f9 213c 9fa6 19bd
00000210: 82c1 5cbc c8b2 4fbd 39b1 ba3c 8b29 54bd
00000220: a583 3dbd db60 00bc 446a f7bc f71d 273b
00000230: 2b97 033d 7af3 473d d745 9a3d f46e e93c
00000240: f352 8abc bf5c 5bbc b569 9cbc 5ed6 4b3d
00000250: 3bc3 f4bc 917f bdbc 3287 09bd d26f 9a3c
00000260: 4493 76bd b9fd f1bc 5f17 4cbc 5e18 2fbc
00000270: dc37 e1bc bb2f 16bd 32eb bdbc 57dd 37bd
00000280: 4813 5f3d fb8d d43c 10c4 c33c 2b6a b2bb
00000290: 2c2d 683c a357 103d e477 943b 0f34 fe3c
000002a0: d2d2 173d c85e 093d 3424 a63b 57f9 693c
000002b0: f252 9ebc 17be 9d3c 9dfb 4a3c c3a6 f93c
000002c0: 9392 24bd 250a 3abd 469d b3bb d000 91bc
000002d0: 5211 64bd bf7b b8bd e6f2 99bd d141 e1bc
000002e0: 9dca 673b 3b55 c53c e565 5b3d 06df f53c
000002f0: 2b07 353d a207 4dbd a782 893c 9f12 373d
00000300: 965d 22bd 8d0d 543c 874e 953d e621 ba3c
00000310: e8e0 d5bc 0081 843c af1c eb3c a971 dbbb
00000320: 2d4f 4abc 752f 403c 5b63 093d 3d89 97bc
00000330: 69af 56bc 495c a53c 61d4 bcbb 21d0 babc
00000340: 26dd 22bd 3403 84bd 0415 b63c bda9 04bd
00000350: 58fd ddbc fc07 08bc 2681 ce3b e8a6 2cbd
00000360: ac99 31bc 5f65 26bd 8347 53bd de99 933b
00000370: cbe6 d73c 71f0 923c 5719 1fbd a7ba 13bd
00000380: b308 203d 8595 40bc 1e83 e5bc cef9 b1bc
00000390: 0e85 d53b 274a fb3c adb8 663c 4489 443d
000003a0: f203 91bb eaad e03c fa42 e9bc 3b85 a3bc
000003b0: d6f2 2cbc c2b5 22bc 0014 84bc aee5 a63c
000003c0: 06db ce3c 7b42 31bd ecae 73bd dd24 5fbc
000003d0: 83e2 993d 7145 9b3d e962 1f3c 4915 cc3c
000003e0: 0941 0b3c d5b5 203c a6ff 633c 6746 d43c
000003f0: cd12 a13b 4243 f13c fbec 07bd 4853 ac3c

blocks.1.conv1.bias f4 [32]
-9.2399057e-07 8.9596193e-07 -1.1970955e-06 -1.3494522e-07 1.5390948e-06 -1.4991234e-06 -9.2677425e-07 8.0392925e-07
5.1852275e-08 9.184648e-07 1.7337236e-06 -4.334065e-08 1.0159136e-07 1.7124084e-07 1.4646059e-06 7.225321e-07
-9.509498e-07 -1.0326131e-06 -1.0288802e-07 1.7068352e-06 -1.171088e-06 -8.67124e-07 -9.498207e-07 6.872145e-08
-3.0004418e-07 -4.5790156e-07 -6.418336e-08 5.7435295e-07 1.2361816e-06 -1.1841659e-06 2.6025319e-08 2.57061e-07
00000000: 2608 78b5 0982 7035 e3ab a0b5 76e5 10b4
00000010: e592 ce35 7d35 c9b5 71c7 78b5 99cd 5735
00000020: 2eb4 5e33 6c8c 7635 4ab2 e835 8c25 3ab3
00000030: 712a da33 53de 3734 7a93 c435 07f4 4135
00000040: c644 7fb5 5198 8ab5 4af3 dcb3 6916 e535
00000050: 472e 9db5 4fc4 68b5 2ef7 7eb5 0494 9333
00000060: c215 a1b4 83d5 f5b4 2dd5 89b3 3c2d 1a35
00000070: e0ea a535 a1ef 9eb5 488e df32 3202 8a34

blocks.1.bn1.weight f4 [32]
0.6520059 0.58767563 0.5815041 0.59280914 0.7321984 0.8122595 0.7423724 0.43323067
0.8379432 0.8049846 0.54964745 0.5770626 0.7509503 0.6389342 0.699012 0.7654256
0.6456353 0.7469124 0.7049214 0.8373809 0.7072874 0.73539525 0.7265702 0.5052207
0.61495364 0.7427032 0.81100047 0.541562 0.8408721 0.6948007 0.58053505 0.81364155
00000000: dce9 263f e971 163f 74dd 143f 57c2 173f
00000010: 5b71 3b3f 3df0 4f3f 1e0c 3e3f 69d0 dd3e
00000020: 7283 563f 7913 4e3f b2b5 0c3f 60ba 133f
00000030: 473e 403f 3191 233f 73f2 323f eff2 433f
00000040: 5b48 253f a735 3f3f bb75 343f 985e 563f
00000050: c910 353f dd42 3c3f 8100 3a3f 2556 013f
00000060: 9a6d 1d3f cc21 3e3f ba9d 4f3f cfa3 0a3f
00000070: 6543 573f 75de 313f f29d 143f d04a 503f

blocks.1.bn1.bias f4 [32]
-0.068046376 -0.03666873 0.008566967 -0.04975577 -0.062490426 -0.07378797 -0.010298549 -0.094819196
-0.014176921 -0.023461554 0.021272134 -0.056672607 0.022206923 -0.031285185 -0.074724056 -0.08681502
-0.013609776 -0.016141867 -0.082276754 -0.036174946 -0.06578954 -0.029962132 -0.066349976 -0.027169105
-0.035965968 -0.036976825 -0.026173655 -0.029594634 -0.14255047 -0.06464778 0.052546613 0.004852464
00000000: e65b 8bbd f331 16bd 775c 0c3c b5cc 4bbd
00000010: f6f5 7fbd 261e 97bd 3fbb 28bc 9130 c2bd
00000020: 5146 68bc 7232 c0bc e642 ae3c 8921 68bd
00000030: 4beb b53c e524 00bd ed08 99bd 13cc b1bd
00000040: 8afb 5ebc f33b 84bc b780 a8bd 2e2c 14bd
00000050: abbc 86bd 2573 f5bc 7fe2 87bd be91 debc
00000060: 0d51 13bd 0375 17bd 226a d6bc 7270 f2bc
00000070: c0f8 11be 0e66 84bd 1e3b 573d 6b01 9f3b

blocks.1.bn1.running_mean f4 [32]
-0.38082317 0.40983808 -0.4548372 -0.1351263 -1.2158297 -0.1384448 -0.5976409 -0.05025937
-0.21894023 -0.38303328 -0.07404891 0.41074485 -0.2865458 -0.50870395 0.054877114 -0.40015122
-0.14598235 -0.3289963 -0.30584547 -0.5374555 -1.2288796 -0.8006148 0.28711674 -0.058762133
-0.84707344 -0.24381685 -0.65503013 -0.7707601 -0.7406338 0.3582267 0.6656227 -0.50459737
00000000: 41fb c2be 4cd6 d13e 6ce0 e8be 8c5e 0abe
00000010: 4fa0 9bbf 79c4 0dbe fefe 18bf c5dc 4dbd
00000020: de31 60be f01c c4be f4a6 97bd 264d d23e
00000030: 22b6 92be 6c3a 02bf d3c6 603d 9fe0 ccbe
00000040: 667c 15be 3472 a8be c797 9cbe af96 09bf
00000050: ed4b 9dbf 17f5 4cbf f700 933e 90b0 70bd
00000060: ced9 58bf 20ab 79be 0eb0 27bf 8950 45bf
00000070: 2d9a 3dbf 7d69 b73e 4066 2a3f 4b2d 01bf

blocks.1.bn1.running_var f4 [32]
0.21942672 0.38521963 0.22034828 0.49177304 0.4066735 0.5042704 0.24575867 0.12028784
0.6650451 0.44267666 0.18753625 0.27662906 0.45003572 0.3095978 0.5187717 0.36071587
0.17376265 0.3055174 0.38915697 0.7828846 0.30690864 0.390394 0.34334126 0.17484105
0.34978166 0.2929396 0.69332194 0.26135027 0.33213314 0.28435522 0.31251425 0.41976455
00000000: 66b1 603e 823b c53e fba2 613e adc9 fb3e
00000010: 8237 d03e dd17 013f 29a8 7b3e 7959 f63d
00000020: 6540 2a3f 84a6 e23e 8109 403e 53a2 8d3e
00000030: 156b e63e 9a83 9e3e 39ce 043f c0af b83e
00000040: d6ee 313e c76c 9c3e 953f c73e 206b 483f
00000050: 2123 9d3e b9e1 c73e 6dca af3e 8809 333e
00000060: 9516 b33e 2efc 953e 8c7d 313f b4cf 853e
00000070: 5b0d aa3e 0297 913e de01 a03e 61eb d63e

blocks.1.conv2.weight f4 [32, 32, 3, 3]
1.2160912e-05 0.0287106 0.05547204 -0.031501073 0.051890872 0.009420877 -0.0022077174 0.054984044
-0.007826548 0.018160429 -0.008746339 -0.013837303 0.014464277 0.028717594 0.009261486 0.014583903
0.008612659 0.064251035 0.026413374 -0.0061365943 -0.03787503 0.044258393 0.043592595 -0.058261912
0.057813425 -0.030217865 -0.06850096 0.00957704 -0.009487231 0.0352878 -0.006936615 -0.030573787
-0.022408672 0.0047949315 -0.02001379 -0.047941346 0.022986155 -0.014938054 -0.020788737 0.030198025
-0.066195525 0.015492923 0.034188062 -0.058407646 -0.049388647 -0.041454755 -0.012807348 -0.022596197
-0.06373299 -0.043647967 -0.011742828 0.041365754 0.04178089 -0.028621623 -0.068112776 0.0059803375
-0.01666386 -0.028137313 0.011272174 0.054182645 0.04994836 0.027413404 0.026489634 -0.0025491533
0.007125901 -0.001777571 0.023818985 0.006240627 0.029000219 0.06625696 0.069529705 0.06470596
-0.009086494 -0.004043447 -0.014233858 0.032198127 -0.03674129 -0.07336745 -0.0038462013 -0.035402015
-0.045219447 -0.02614251 0.003750682 -0.06048743 -0.00046087042 -0.027428158 -0.024414184 0.010527553
0.0022733163 0.027237292 0.08576624 0.07148495 -0.0003496173 -0.02057792 -0.0139441 -0.039030727
-0.0136660095 -0.06572524 -0.029473998 -0.016783146 0.038428012 0.039449766 0.010462417 0.00294882
-0.028414477 -0.019697106 -0.056084577 -0.057175435 0.07827067 0.06635029 0.08278918 -0.039167207
0.030019023 0.039906643 -0.06259883 -0.03402399 -0.008379354 0.02864772 0.03202698 0.006648704
-0.0076518045 0.016757166 -0.0078085205 -0.048940748 -0.076475486 -0.035237327 0.029102897 -0.004922723
-0.0019179594 0.0019434614 0.047198392 0.05852461 0.02813254 0.006877769 -0.0023222375 -0.016687574
0.0025743544 -0.06508585 -0.055670947 0.017884973 -0.066885635 0.023668626 0.022974612 -0.021598
-0.018567976 -0.009150845 0.0370216 0.017114095 -0.0047666677 0.023730384 0.008387357 0.030245857
-0.007652067 -0.030185504 -0.012094945 0.05893108 -0.022119218 -0.031281825 0.0068357266 0.0026250903
0.01724786 0.01087611 0.030146653 0.016588163 0.04315725 0.034235474 0.053939816 0.051034458
0.03972646 0.015860097 0.042622175 -0.020697549 0.0040160236 -0.046779905 -0.029084235 -0.09128962
-0.032810196 -0.06338557 -0.03202502 -0.024884604 0.013892005 0.009078547 0.00028684668 0.023169134
0.02648462 0.014683898 -0.09106586 -0.043970395 -0.06032964 -0.026810002 -0.052167714 -0.057981715
0.016958972 0.0012207094 -0.018029058 -0.031923335 0.0015601256 -0.015018553 -0.020323448 -0.025693877
-0.038523678 0.004222016 0.053668655 -0.0052021737 0.02355699 0.05805781 0.011002183 0.021944381
-0.015580245 0.04401125 0.00757156 0.015699975 0.006308973 0.03260976 0.009703807 -0.010883355
0.017040959 0.021113213 -0.013119465 0.0055079455 -0.0005824357 0.019918814 -0.026873674 -0.04985813
-0.013014089 0.04904602 -0.0026654825 0.00044656062 0.050529007 0.0059129666 0.021614863 -0.024626175
-0.012233897 -0.029856369 -0.017493876 -0.051922288 -0.013644965 -0.026090182 -0.04475201 0.0022942012
-0.028351273 -0.055380214 -0.0644337 -0.024903044 -0.014759647 0.012448565 -0.0758809 -0.012447421
0.031657185 -0.05985757 -0.016974116 0.0411211 -0.044891614 -0.0031640062 -0.0007794186 0.055721626
00000000: b806 4c37 7e32 eb3c a636 633d 4507 01bd
00000010: 868b 543d 065a 1a3c 5aaf 10bb f336 613d
00000020: ec3a 00bc 2ec5 943c ce4c 0fbc dbb5 62bc
00000030: 93fb 6c3c 2941 eb3c 7dbd 173c 53f1 6e3c
00000040: 1c1c 0d3c 0c96 833d dc60 d83c 7c15 c9bb
00000050: d922 1bbd 4a48 353d 268e 323d 0ba4 6ebd
00000060: c5cd 6c3d 758b f7bc 3b4a 8cbd 04e9 1c3c
00000070: 5570 1bbc f189 103d 8b4c e3bb e175 fabc
00000080: 6492 b7bc cd1e 9d3b f6f3 a3bc 255e 44bd
00000090: 764d bc3c bdbe 74bc 244d aabc d961 f73c
000000a0: 8591 87bd 07d6 7d3c c808 0c3d db3c 6fbd
000000b0: c04b 4abd 76cc 29bd e9d5 51bc a91b b9bc
000000c0: 7186 82bd 36c8 32bd fe64 40bc 236f 293d
000000d0: 7022 2b3d e577 eabc b67e 8bbd b5f6 c33b
000000e0: a682 88bc 3980 e6bc edae 383c 9fee 5d3d
000000f0: a796 4c3d 1392 e03c ca00 d93c b20f 27bb
00000100: 6480 e93b 63fd e8ba 0820 c33c 2c7e cc3b
00000110: de91 ed3c bbb1 873d 9765 8e3d 8f84 843d
00000120: 85df 14bc e47e 84bb 2135 69bc 2fe2 033d
00000130: 097e 16bd ac41 96bd 8d10 7cbb b401 11bd
00000140: 0738 39bd d128 d6bc 01ce 753b abc1 77bd
00000150: fba0 f1b9 04b1 e0bc 4100 c8bc c27b 2c3c
00000160: ebfb 143b be20 df3c 36a6 af3d b466 923d
00000170: d74c b7b9 0793 a8bc cb75 64bc afde 1fbd
00000180: 66e7 5fbc f49a 86bd 7473 f1bc cf7c 89bc
00000190: b166 1d3d 1496 213d 8f6a 2b3c fd40 413b
000001a0: 7ac5 e8bc d35b a1bc f1b8 65bd ca30 6abd
000001b0: 5f4c a03d a9e2 873d 608d a93d cb6d 20bd
000001c0: 74ea f53c 2675 233d d133 80bd bd5c 0bbd
000001d0: 8f49 09bc a0ae ea3c b92e 033d 5fdd d93b
000001e0: fdbb fabb 5346 893c 9ede ffbb 1876 48bd
000001f0: 2e9f 9cbd 0455 10bd 3369 ee3c cb4e a1bb
00000200: 0a64 fbba bebb fe3a 1a53 413d 80b7 6f3d
00000210: 3676 e63c e85e e13b ae30 18bb 61b4 88bc
00000220: 80b6 283b bb4b 85bd 3807 64bd 8283 923c
00000230: 56fb 88bd b5e4 c13c 4135 bc3c 4aee b0bc
00000240: de1b 98bc 6ded 15bc f6a3 173d dc32 8c3c
00000250: b531 9cbb 3966 c23c 206b 093c 29c6 f73c
00000260: 31be fabb 9747 f7bc e029 46bc b761 713d
00000270: 5d33 b5bc 5f21 00bd 3bfe df3b b509 2c3b
00000280: 624b 8d3c b631 323c 1df6 f63c e6e3 873c
00000290: a8c5 303d 7f3a 0c3d ffef 5c3d 8209 513d
000002a0: 36b8 223d 09ed 813c 9794 2e3d e88d a9bc
000002b0: d998 833b 499c 3fbd 1042 eebc 0df6 babd
000002c0: fc63 06bd 4bd0 81bd ab2c 03bd ccda cbbc
000002d0: 4b9b 633c 30be 143c e963 9639 32cd bd3c
000002e0: 46f6 d83c bb94 703c bd80 babd 4d1a 34bd
000002f0: 361c 77bd a6a0 dbbc d0ad 55bd 3c7e 6dbd
00000300: 8bed 8a3c 3600 a03a adb1 93bc 0bc2 02bd
00000310: 217d cc3a 6010 76bc 5c7d a6bc f77b d2bc
00000320: 01cb 1dbd d658 8a3b aad3 5b3d ff76 aabb
00000330: 97fa c03c 07ce 6d3d 8042 343c b4c4 b33c
00000340: 4944 7fbc 2445 343d d91a f83b 3c9d 803c
00000350: 80bb ce3b d091 053d b7fc 1e3c 1950 32bc
00000360: 7b99 8b3c 9ef5 ac3c 06f3 56bc ff7b b43b
00000370: 99ae 18ba c82c a33c 2e26 dcbc 0a38 4cbd
00000380: 0c39 55bc 7be4 483d 60af 2ebb 5a20 ea39
00000390: 81f7 4e3d 8fc1 c13b a711 b13c d5bc c9bc
000003a0: af70 48bc 5895 f4bc 514f 8fbc 77ac 54bd
000003b0: 228f 5fbc 14bb d5bc e24d 37bd 4f5a 163b
000003c0: ee40 e8bc 5dd6 62bd d1f5 83bd 7801 ccbc
000003d0: 72d2 71bc 11f5 4b3c 7267 9bbd 45f0 4bbc
000003e0: f7aa 013d 362d 75bd 4d0d 8bbc 996e 283d
000003f0: 45e0 37bd 375b 4fbb e651 4cba 5c3c 643d

blocks.1.conv2.bias f4 [32]
-1.4266642e-06 -1.4204988e-06 8.286505e-07 -1.3945746e-06 -2.8049186e-07 4.4999172e-07 5.317846e-07 6.5693604e-07
-3.916605e-07 2.7849322e-07 -1.2062172e-06 3.132559e-07 -1.2146494e-06 1.340196e-06 2.0883674e-06 -4.5487886e-07
6.531791e-07 -1.5218919e-06 -5.8430913e-07 1.2497706e-07 -1.483859e-07 1.7004023e-06 -2.4947352e-07 7.0783e-07
1.4529376e-06 -1.0072248e-06 8.856162e-08 -2.4911806e-06 -1.2051825e-06 -8.757685e-07 4.886469e-07 -1.8804283e-06
00000000: cf7b bfb5 f8a7 beb5 6e70 5e35 382d bbb5
00000010: 8296 96b4 6496 f134 f6bf 0e35 4d58 3035
00000020: 6945 d2b4 d183 9534 4fe5 a1b5 902d a834
00000030: 0907 a3b5 c9e0 b335 e125 0c36 1336 f4b4
00000040: 2056 2f35 cf43 ccb5 6bd9 1cb5 6f31 0634
00000050: 0154 1fb4 6139 e435 61ef 85b4 b501 3e35
00000060: 8e02 c335 fb2f 87b5 442f be33 282e 27b6
00000070: c1c1 a1b5 5a16 6bb5 8f2b 0335 0663 fcb5

blocks.1.bn2.weight f4 [32]
0.727591 0.9136939 0.68162936 0.66607416 0.39308438 0.9864083 0.9338631 0.8523023
0.9020208 0.5905831 0.72863555 0.76415783 0.61483854 0.64427924 0.958597 0.6052853
0.64689654 0.68427634 0.7064369 0.7920648 0.553711 0.8409703 0.7348381 0.53628165
0.73329324 0.59615076 0.8830975 0.69765455 0.65955395 0.6685394 0.57765603 0.8461316
00000000: 6743 3a3f d8e7 693f 437f 2e3f d683 2a3f
00000010: 5b42 c93e 4185 7c3f a711 6f3f 7c30 5a3f
00000020: d6ea 663f 7430 173f dc87 3a3f d99f 433f
00000030: 0f66 1d3f 7cef 243f 9d66 753f faf3 1a3f
00000040: 039b 253f bc2c 2f3f 0cd9 343f c2c4 4a3f
00000050: 01c0 0d3f d449 573f 5a1e 3c3f c149 093f
00000060: 1bb9 3b3f 569d 183f ae12 623f 7d99 323f
00000070: 87d8 283f 6625 2b3f 44e1 133f 159c 583f

blocks.1.bn2.bias f4 [32]
-0.025513502 -0.017644938 -0.042965386 -0.07071743 -0.06713848 -0.037043013 -0.017829541 -0.03006403
-0.04428549 -0.07989678 0.00045121528 -0.015132346 -0.06794766 -0.058905266 -0.04431449 -0.03356861
-0.042346526 -0.003882835 -0.03452634 -0.074519165 -0.049326055 -0.02199031 -0.0054583754 -0.058565434
-0.046957783 -0.054514315 -0.03442643 -0.026126506 -0.02319504 -0.051203474 -0.026204992 -0.024109911
00000000: b101 d1bc 1e8c 90bc 79fc 2fbd 4dd4 90bd
00000010: e67f 89bd 6aba 17bd 420f 92bc d748 f6bc
00000020: b464 35bd eca0 a3bd 1791 ec39 a9ed 77bc
00000030: 2528 8bbd a646 71bd 1c83 35bd 3d7f 09bd
00000040: 8d73 2dbd 2977 7ebb 7e6b 0dbd 819d 98bd
00000050: 1e0a 4abd 0625 b4bc 2cdc b2bb 4fe2 6fbd
00000060: ce56 40bd 674a 5fbd ba02 0dbd 4107 d6bc
00000070: 8603 bebc bcba 51bd daab d6bc 2682 c5bc
